checkpoint-tennis.pth (torch_old, 250808 bytes, 108 tensors)

network.0.weight f4 [24]
0.41568008 0.23737687 0.121417314 0.22355299 1.2873393 1.1225783 0.12674539 0.14505059
0.023999186 0.25848567 -0.07736071 0.3901982 0.6870088 0.41971815 0.18863483 0.062189072
0.7997947 0.87451434 0.19733357 0.6358087 1.6690456 1.0978103 -0.109395914 0.51576155
00000000: 05d4 d43e ec12 733e a4a9 f83d 13eb 643e
00000010: 89c7 a43f a5b0 8f3f 8bc9 013e 2488 143e
00000020: f199 c43c 3c58 843e 4b6f 9ebd 0fc8 c73e
00000030: cfdf 2f3f 4ce5 d63e 7d29 413e f8b9 7e3d
00000040: 58bf 4c3f 2ce0 5f3f d011 4a3e 5cc4 223f
00000050: 49a3 d53f 0c85 8c3f f70a e0bd f308 043f

network.0.bias f4 [24]
0.16754964 0.13981925 -0.015215304 0.036712058 0.15022351 0.16033648 0.05098318 -0.2394088
0.35550913 -0.3758023 0.0731584 0.14764786 0.39503822 0.39617082 0.17164859 -0.27199847
0.22613616 -0.20556755 0.07991944 -0.49508896 -0.014794278 -0.048098817 0.010019167 0.0026766984
00000000: 2292 2b3e c72c 0f3e 9c49 79bc 625f 163d
00000010: 31d4 193e 3f2f 243e bdd3 503d 9527 75be
00000020: 4b05 b63e 2969 c0be 12d4 953d 0031 173e
00000030: 7342 ca3e e7d6 ca3e a6c4 2f3e 6243 8bbe
00000040: 3d90 673e 4d80 52be ceac a33d 4d7c fdbe
00000050: b363 72bc 4403 45bd 6f27 243c 8c6b 2f3b

network.0.running_mean f4 [24]
-5.401078 -0.79357135 7.3344355 -0.17551976 -0.2187847 4.034889 7.3344355 -0.17551976
-5.399792 -0.8034593 7.6713424 -0.18406026 -0.2784046 4.037791 7.6713424 -0.18406026
-5.4927998 -0.81336397 7.045278 -0.06832147 -0.33175588 4.0668325 7.045278 -0.06832147
00000000: a2d5 acc0 7e27 4bbf b2b3 ea40 74bb 33be
00000010: 1909 60be d01d 8140 b2b3 ea40 74bb 33be
00000020: 19cb acc0 82af 4dbf a37b f540 4b7a 3cbe
00000030: 0c8b 8ebe 9535 8140 a37b f540 4b7a 3cbe
00000040: 04c5 afc0 9f38 50bf eb72 e140 20ec 8bbd
00000050: e8db a9be 7e23 8240 eb72 e140 20ec 8bbd

network.0.running_var f4 [24]
18.273853 1.0740457 412.85324 14.47162 28.31657 2.024741 412.85324 14.47162
18.277262 1.0684069 406.76962 14.068603 28.286755 2.0302756 406.76962 14.068603
18.444782 1.054822 429.71365 14.489493 28.375582 2.0023072 429.71365 14.489493
00000000: da30 9241 547a 893f 376d ce43 c18b 6741
00000010: 5688 e241 5b95 0140 376d ce43 c18b 6741
00000020: d537 9241 8fc1 883f 8362 cb43 ff18 6141
00000030: 464b e241 09f0 0140 8362 cb43 ff18 6141
00000040: ea8e 9341 6804 873f 59db d643 f7d4 6741
00000050: 3101 e341 cd25 0040 59db d643 f7d4 6741

network.1.weight f4 [64, 24]
0.01942644 -0.42140847 0.0039850003 -0.02890114 -0.9214092 -0.12622656 0.18295066 -0.10474911
0.30374336 -0.06003223 0.26661107 0.17537513 -0.2536803 -0.09704222 -0.2913358 -0.11417443
-0.36659113 -0.22255827 -0.64593494 0.68115956 0.3276258 0.66429025 0.461658 0.76912725
0.10482925 -0.02254885 -0.18286544 0.1563107 0.77630234 -0.72351426 -0.05876016 0.26436922
-0.2969941 0.2133604 -0.019417455 -0.09133353 0.006577775 -0.07228679 -0.19178271 0.43106186
0.09201367 0.46746117 -0.21778914 0.6025615 0.5004596 0.47678757 0.16081429 0.40596342
0.12785564 -0.57682854 0.069349125 -0.25243697 0.10442273 0.3707731 0.18658382 -0.4180024
0.013695176 -0.6764035 -0.21838629 0.22245598 0.115160435 0.18466945 -0.10892251 0.27804655
0.49877316 -1.0211651 0.24310935 0.06481116 -0.47625998 0.009042605 -0.19788916 0.16860297
0.041086223 -0.38991198 -0.34595245 0.08850812 0.07599262 0.7394247 -0.34045437 0.20592389
-0.31940156 -0.30178082 0.122343145 -0.23210268 -0.35851648 0.2350571 0.0115955 0.027059477
-0.15728188 -0.49686998 -0.20275149 -0.102556735 -0.808065 -0.10154444 0.61761314 -0.24624719
0.068458915 -0.362613 0.14205009 0.026969295 0.014194245 0.06399944 -0.14782912 0.17298421
-0.23644234 0.12610514 0.03355565 -0.15281737 0.105748154 0.07888605 -0.16905266 0.0053530815
0.2333662 0.104281016 -0.22674547 0.24606815 -0.014943074 -0.014348551 -0.09733448 -0.121267356
-0.6502554 0.45102984 -0.072038755 -0.5249833 0.08614492 -0.14948982 0.30823064 -0.609765
0.09905402 0.17073038 -0.28852257 -0.37511903 0.26816836 0.3280649 0.31064504 -0.26090533
0.13645716 0.23993048 0.39749813 -0.005265645 0.47950923 0.69455063 -0.4874604 0.009342922
-0.04572809 -0.29234132 0.21925336 -0.5299661 0.42227685 0.044315472 -0.080851234 -0.043461926
-0.32625607 0.4364531 -0.67922974 -0.0005110383 0.21811749 -0.107611656 -0.24264428 0.5469386
-0.19077131 0.12549132 0.1490801 0.47179455 0.4468805 0.52482456 -0.036762152 -0.03171882
-0.245038 -0.57552457 -0.4347133 -0.1587513 -0.22523652 -0.53453535 -0.16351749 -0.21907431
-0.32860616 -0.22882329 0.25030348 0.032871332 -0.30828562 -0.0031932688 -0.18632038 -0.00074187387
-0.20677313 -0.6264808 -0.053427048 0.06693892 0.024943901 1.3103546 0.09330857 0.11066286
-0.36908302 -0.37326396 0.08627397 -1.3888727 -0.16361696 -0.39288902 0.071460575 -0.3878416
-0.568035 0.17382774 -0.6004453 -0.44609198 -0.049388036 -0.5408324 -0.021369902 -0.10636092
-0.24630912 -0.6361682 -0.04481259 0.08853787 -0.008932623 -0.16503929 0.041329462 -0.45354956
-0.1437685 -0.0050242613 -0.024680877 -0.2581992 1.0079113 0.16343932 0.17907375 -0.29758024
-0.040776826 -0.023681963 -0.16094568 -0.122742966 0.01818917 -0.0029327814 -0.024817768 -0.42994484
-0.032330275 0.13692757 0.011356637 0.21584032 -0.9730262 0.1715109 -0.3435692 -0.00068277615
-0.041401394 -0.20802474 -0.37595847 -0.105199166 0.107079536 0.08476993 -0.25657693 0.082423665
-0.13503158 0.15801439 0.052626107 -0.2509262 -0.026963212 -0.122077554 -0.27584603 -0.28893274
00000000: 3324 9f3c dac2 d7be 9b94 823b 15c2 ecbc
00000010: 79e1 6bbf 8941 01be 6b57 3b3e b486 d6bd
00000020: 4084 9b3e 5be4 75bd 3f81 883e 8a95 333e
00000030: 62e2 81be 12be c6bd f729 95be 49d4 e9bd
00000040: d5b1 bbbe 51e6 63be fe5b 25bf 7960 2e3f
00000050: 92be a73e ed0e 2a3f 705e ec3e 86e5 443f
00000060: b8b0 d63d 5eb8 b8bc 1441 3bbe ea0f 203e
00000070: c0bb 463f 3b38 39bf 7eae 70bd 675b 873e
00000080: 9c0f 98be 267b 5a3e 5b11 9fbc 130d bbbd
00000090: 608a d73b 190b 94bd b062 44be 24b4 dc3e
000000a0: aa71 bc3d 1257 ef3e 1e04 5fbe 7841 1a3f
000000b0: 1f1e 003f 801d f43e 80ac 243e 70da cf3e
000000c0: 97ec 023e 09ab 13bf ea06 8e3d 6b3f 81be
000000d0: 96db d53d f9d5 bd3e d40f 3f3e 6904 d6be
000000e0: bb61 603c c828 2dbf a8a0 5fbe 80cb 633e
000000f0: 3cd9 eb3d fd19 3d3e c412 dfbd 1e5c 8e3e
00000100: 325f ff3e 8ab5 82bf a8f1 783e b7bb 843d
00000110: 59d8 f3be 6f27 143c 75a3 4abe 42a6 2c3e
00000120: 074a 283d 8ba2 c7be ae20 b1be bf43 b53d
00000130: 05a2 9b3d f04a 3d3f 0950 aebe b6dd 523e
00000140: 9a88 a3be 0483 9abe 0b8f fa3d 53ac 6dbe
00000150: 798f b7be cfb2 703e 0dfb 3d3c d6ab dd3c
00000160: 800e 21be be65 febe 169e 4fbe 4409 d2bd
00000170: 59dd 4ebf 88f6 cfbd e51b 1e3f 3928 7cbe
00000180: 3034 8c3d 69a8 b9be 9475 113e b6ee dc3c
00000190: fb8e 683c 2312 833d 8460 17be c622 313e
000001a0: f11d 72be b521 013e a671 093d 287c 1cbe
000001b0: 7d92 d83d 028f a13d 241c 2dbe e768 af3b
000001c0: 8df7 6e3e 4991 d53d f72f 68be 4af9 7b3e
000001d0: ccd3 74bc 2f16 6bbc 4d57 c7bd 055b f8bd
000001e0: 2377 26bf 62ed e63e 0e89 93bd 4e65 06bf
000001f0: bf6c b03d dc13 19be 68d0 9d3e 8f19 1cbf
00000200: d6dc ca3d f2d3 2e3e 3bb9 93be 9a0f c0be
00000210: 5d4d 893e 1ff8 a73e de0c 9f3e 6295 85be
00000220: 6dbb 0b3e 56b0 753e e084 cb3e 6f8b acbb
00000230: 3c82 f53e 12ce 313f 6994 f9be 0e13 193c
00000240: 614d 3bbd c3ad 95be f483 603e dcab 07bf
00000250: ac34 d83e 2484 353d 5595 a5bd 2205 32bd
00000260: 090b a7be c876 df3e 00e2 2dbf 33f7 05ba
00000270: 315a 5f3e 8063 dcbd be77 78be 2b04 0c3f
00000280: 8e59 43be cc80 003e 74a8 183e 0e8f f13e
00000290: 85cd e43e e75a 063f e993 16bd 98eb 01bd
000002a0: 3eeb 7abe 9455 13bf be92 debe b38f 22be
000002b0: 67a4 66be 4fd7 08bf 2171 27be 0455 60be
000002c0: 113f a8be a750 6abe c727 803e 17a4 063d
000002d0: 9dd7 9dbe 2946 51bb c5ca 3ebe 507a 42ba
000002e0: 56bc 53be 0c61 20bf 52d6 5abd 4617 893d
000002f0: 2757 cc3c b3b9 a73f 9018 bf3d 36a3 e23d
00000300: 73f8 bcbe 741c bfbe 68b0 b03d 95c6 b1bf
00000310: 348b 27be c028 c9be ec59 923d 2d93 c6be
00000320: be6a 11bf e6ff 313e c8b6 19bf 2b66 e4be
00000330: 1c4b 4abd fe73 0abf ef0f afbc c1d3 d9bd
00000340: 7538 7cbe ebdb 22bf 688d 37bd 5853 b53d
00000350: 235a 12bc 0f00 29be 1549 293d a637 e8be
00000360: 0d38 13be 8fa2 a4bb 8d2f cabc af32 84be
00000370: 3d03 813f a35c 273e 1c5f 373e 705c 98be
00000380: 9a05 27bd ad00 c2bc f2ce 24be aa60 fbbd
00000390: 7401 953c e833 40bb a24e cbbc bb21 dcbe
000003a0: c06c 04bd be36 0c3e 3011 3a3c 3f05 5d3e
000003b0: 3f18 79bf 8ea0 2f3e 4de8 afbe 55fc 32ba
000003c0: 8294 29bd 7004 55be a17d c0be a972 d7bd
000003d0: 844c db3d db9b ad3d 0d5e 83be bdcd a83d
000003e0: b845 0abe 86ce 213e 798e 573d 6679 80be
000003f0: f4e1 dcbc cc03 fabd b13b 8dbe feee 93be

network.1.bias f4 [64]
-0.032568663 -0.48760074 -0.06714755 -0.2270698 -0.39263016 0.25404277 -0.69478434 0.063898765
-0.5896917 0.19341286 -0.5362037 -0.52519745 -0.04619419 -0.547314 -0.04816848 -0.019010175
-0.5090195 -0.6626759 -0.59120464 -0.15010901 -0.5715298 -0.2551055 -0.5511983 0.025767906
-0.30981246 -0.7076464 -0.16734882 -0.3704339 -0.6064082 -0.66246194 0.45515284 -0.3463355
0.1292665 0.41438198 -0.1990919 -0.4960679 -0.12362608 -0.076057054 -0.32284865 -0.15951508
-0.4087255 -0.4945988 -0.6457095 -0.5352561 -0.20830968 -0.19024561 -0.46883762 0.27634302
-0.09563588 0.057562906 -0.63284355 -0.33641404 -0.71080846 0.03049952 0.08262782 -0.3821131
-0.20345545 -0.040193878 0.04295219 -0.56931204 -0.8495837 0.017526194 -0.5505328 -0.19164509
00000000: b866 05bd cea6 f9be a884 89bd fc84 68be
00000010: d206 c9be e511 823e 63dd 31bf 5bdd 823d
00000020: 09f6 16bf 050e 463e a544 09bf 5773 06bf
00000030: 1e36 3dbd c51c 0cbf 504c 45bd 3abb 9bbc
00000040: 1a4f 02bf 21a5 29bf 3059 17bf 2db6 19be
00000050: c74f 12bf 309d 82be 551b 0dbf 3717 d33c
00000060: bd9f 9ebe 5128 35bf 7d5d 2bbe 83a9 bdbe
00000070: 913d 1bbf 1b97 29bf cb09 e93e e352 b1be
00000080: 705e 043e e029 d43e bfde 4bbe 9dfc fdbe
00000090: ac2f fdbd cdc3 9bbd 6b4c a5be ec57 23be
000000a0: 7844 d1be 0e3c fdbe 384d 25bf 8b06 09bf
000000b0: 224f 55be bfcf 42be 7c0b f0be d57c 8d3e
000000c0: bfdc c3bd 15c7 6b3d 0902 22bf 763e acbe
000000d0: 8bf7 35bf 21da f93c c638 a93d 54a4 c3be
000000e0: a056 50be 56a2 24bd a3ee 2f3d 6fbe 11bf
000000f0: 517e 59bf 1893 8f3c b8ef 0cbf 9c3e 44be

network.3.weight f4 [64]
0.6859831 0.7868666 0.43218204 0.7205784 0.8517519 0.5161377 0.58301103 0.6812306
0.6130166 1.1068009 0.19714606 0.09627012 0.6788931 1.0443548 0.68804884 0.24258414
0.6824372 0.73795176 0.70847243 0.6855394 0.44042894 0.471168 1.1115358 0.5959836
0.5717323 0.37455508 0.26201755 0.28942803 0.75391173 0.42079437 0.19163717 0.47730967
0.60045624 0.6901286 0.7745753 0.21564071 0.6430093 0.91071415 0.5914903 0.6516309
1.0368198 0.5270671 0.6617705 0.86120117 0.46174458 0.73181486 0.5301885 0.89904237
0.51851815 0.6210991 0.37287602 0.8084236 0.86173946 0.55536413 1.3786712 0.72058016
1.1419688 0.49857447 0.40550447 0.7627652 0.7218858 0.7850422 0.54289013 0.7547929
00000000: 979c 2f3f 1770 493f f746 dd3e d377 383f
00000010: 6a0c 5a3f 9a21 043f 3640 153f 2165 2e3f
00000020: a8ee 1c3f a7ab 8d3f a8e0 493e 4529 c53d
00000030: f0cb 2d3f 6bad 853f f823 303f fa67 783e
00000040: 34b4 2e3f 68ea 3c3f 735e 353f 837f 2f3f
00000050: e77f e13e ef3c f13e ce46 8e3f 6292 183f
00000060: 0c5d 123f afc5 bf3e 2a27 863e e92f 943e
00000070: 5c00 413f 5c72 d73e 893c 443e ef61 f43e
00000080: 80b7 193f 45ac 303f 914a 463f ebd0 5c3e
00000090: 429c 243f 9024 693f e96b 173f 48d1 263f
000000a0: 83b6 843f dfed 063f cb69 293f ae77 5c3f
000000b0: c969 ec3e 3858 3b3f 6fba 073f a427 663f
000000c0: 9bbd 043f 5a00 1f3f 9be9 be3e d9f4 4e3f
000000d0: f59a 5c3f 582c 0e3f 4c78 b03f f177 383f
000000e0: 092c 923f 2745 ff3e 489e cf3e 9544 433f
000000f0: 82cd 383f 87f8 483f d9fa 0a3f 1c3a 413f

network.3.bias f4 [64]
0.23441966 0.7464807 0.23861328 0.18202092 0.07613411 0.37843227 0.9635466 0.15759152
-0.027312443 0.417699 0.25633907 -0.33819056 0.353758 0.7627339 0.40331984 0.1746966
0.6355838 0.085625626 0.47261837 0.25422522 -0.4359476 0.21213739 0.49747184 0.5218942
-0.035000153 0.23750477 0.020649277 -0.031965796 0.5873181 0.13070714 -0.008955342 0.45741364
0.43270302 -0.14661427 0.0990649 0.04764615 0.54322493 0.39642128 0.34830654 0.419066
0.38070607 0.57798505 0.4772323 0.39225632 0.017078768 0.5367091 0.07684258 0.46708983
0.335592 0.3964668 -0.19702055 0.37865007 0.2741284 0.4744465 0.5479287 0.33351886
0.43512964 0.68361825 -0.10296591 0.4406684 0.27013117 0.8009313 0.06875825 0.7700402
00000000: b50b 703e 5c19 3f3f 0a57 743e b163 3a3e
00000010: 33ec 9b3d e0c1 c13e fdaa 763f ac5f 213e
00000020: 58be dfbc a5dc d53e e03e 833e 5027 adbe
00000030: c51f b53e 8742 433f f07f ce3e aae3 323e
00000040: 9fb5 223f 7d5c af3d 09fb f13e cf29 823e
00000050: 8634 dfbe 8b3a 593e a1b4 fe3e dc9a 053f
00000060: 525c 0fbd 7334 733e ac28 a93c 91ee 02bd
00000070: 7b5a 163f 18d8 053e 6db9 12bc 1f32 ea3e
00000080: 408b dd3e 0d22 16be 8ae2 ca3d 9c28 433d
00000090: ca10 0b3f bbf7 ca3e 3c55 b23e d28f d63e
000000a0: e8eb c23e d4f6 133f cb57 f43e d2d5 c83e
000000b0: c6e8 8b3c c465 093f a55f 9d3d 6626 ef3e
000000c0: b7d2 ab3e b2fd ca3e c1bf 49be 6cde c13e
000000d0: 8f5a 8c3e a7ea f23e 0e45 0c3f fcc2 aa3e
000000e0: 50c9 de3e 9b01 2f3f cbdf d2bd 4a9f e13e
000000f0: a24e 8a3e d509 4d3f 20d1 8c3d 5b21 453f

network.3.running_mean f4 [64]
0.4154257 0.23813984 0.9290506 0.5879775 6e-45 0.9286666 0.029924897 0.46629113
0.14192204 0.5004711 6e-45 6e-45 0.8427553 0.45365152 0.28174582 0.810136
0.36214218 0.109043665 0.10340491 0.26705337 0.019317593 0.13307191 0.30240297 0.25576943
0.5285871 0.0393066 0.5015013 0.19825406 0.30826062 6e-45 1.0657909 0.28075436
0.7857864 0.55934286 0.8208364 0.118428156 0.92056584 0.46650362 0.27801073 0.24732174
0.13486989 0.07830612 0.05839427 0.28612277 0.2789647 0.6560122 6e-45 0.9745708
0.15888713 0.81657207 0.11809917 0.1866037 0.055749178 0.52749425 0.96411806 0.22153698
0.42365956 1.1276591 0.75482136 0.2496812 0.016554236 0.9377651 0.15092532 0.37729684
00000000: adb2 d43e eeda 733e 43d6 6d3f b285 163f
00000010: 0400 0000 18bd 6d3f 0f25 f53c b6bd ee3e
00000020: 0354 113e e01e 003f 0400 0000 0400 0000
00000030: d0be 573f 0345 e83e fd40 903e 1365 4f3f
00000040: b36a b93e 4952 df3d f4c5 d33d 38bb 883e
00000050: ee3f 9e3c 0144 083e 90d4 9a3e 36f4 823e
00000060: 7c51 073f f5ff 203d 6462 003f 1d03 4b3e
00000070: 56d4 9d3e 0400 0000 d66b 883f 09bf 8f3e
00000080: 4c29 493f 1831 0f3f 5622 523f 768a f23d
00000090: 34aa 6b3f 90d9 ee3e 6c57 8e3e e941 7d3e
000000a0: 551b 0a3e f65e a03d d42e 6f3d af7e 923e
000000b0: 76d4 8e3e 6af0 273f 0400 0000 797d 793f
000000c0: 4fb3 223e de0a 513f fadd f13d 0a15 3f3e
000000d0: 4059 643d dd09 073f 71d0 763f 97da 623e
000000e0: e8e9 d83e 2257 903f f93b 413f 6eac 7f3e
000000f0: c09c 873c 6011 703f 2b8c 1a3e 0d2d c13e

network.3.running_var f4 [64]
0.5666538 0.3689545 1.0188498 0.5731947 6e-45 0.7357778 0.019822128 0.40867308
0.14609322 0.2234412 6e-45 6e-45 0.5660585 0.5168643 0.26493523 0.71879315
0.22149716 0.08154897 0.12135948 0.3104928 0.012393641 0.11332097 0.3906713 0.24252234
0.47695586 0.022690423 0.88622046 0.17593786 0.23671342 6e-45 1.1088731 0.20879236
1.3337799 0.5285571 0.75965333 0.12104319 0.9966687 0.586579 0.24005707 0.27925518
0.15809138 0.07700457 0.047798578 0.2023691 0.22119562 0.8326956 6e-45 1.4712363
0.10399374 0.83960193 0.079300225 0.23299502 0.041645616 0.38475302 1.1025746 0.328741
0.37423307 1.0930184 0.7510794 0.31211683 0.013129862 1.4217924 0.1169904 0.31586194
00000000: 3910 113f 9be7 bc3e ac69 823f e3bc 123f
00000010: 0400 0000 ef5b 3c3f 0462 a23c 993d d13e
00000020: 7699 153e c5cd 643e 0400 0000 0400 0000
00000030: 36e9 103f 3851 043f 97a5 873e d402 383f
00000040: 27d0 623e 2503 a73d 528b f83d eaf8 9e3e
00000050: b30e 4b3c d314 e83d 1206 c83e c757 783e
00000060: 8f33 f43e 44e1 b93c 58df 623f 0e29 343e
00000070: 0165 723e 0400 0000 8eef 8d3f aacd 553e
00000080: 4db9 aa3f 854f 073f a478 423f 7ee5 f73d
00000090: ae25 7f3f 0b2a 163f 85d1 753e 89fa 8e3e
000000a0: b5e2 213e 92b4 9d3d 71c8 433d d839 4f3e
000000b0: 1b81 623e 8a2b 553f 0400 0000 7951 bc3f
000000c0: acfa d43d 27f0 563f 2868 a23d 3f96 6e3e
000000d0: 9894 2a3d 59fe c43e 2a21 8d3f be50 a83e
000000e0: 7a9b bf3e 07e8 8b3f bd46 403f c7cd 9f3e
000000f0: a21e 573c 4bfd b53f aa98 ef3d a8b8 a13e

network.4.weight f4 [64, 64]
0.053529054 0.067821346 0.053721294 0.04740813 -0.1787294 0.116659455 -0.24554189 -0.013460972
0.040637743 0.075867 -0.49235085 0.3364568 -0.023717834 -0.30920473 -0.18348946 -0.08108641
0.06683179 -0.028778212 -0.20121242 -0.17102662 0.33440572 -0.18313175 -0.35976076 -0.15742639
0.22797953 -0.016338624 -0.16794334 0.06347248 -0.2870365 -0.09499628 -0.23771532 -0.26872915
-0.041585233 0.16054837 0.06441727 -0.18212765 -0.08591892 -0.16093978 0.035352103 0.034724787
-0.00088753056 -0.51790005 -0.30413073 0.0558474 0.016381202 -0.30064815 -0.03894033 -0.36065173
-0.07642979 0.12821643 0.29998058 -0.29162458 -0.23405972 -0.10065815 -0.044920895 0.0033208965
-0.055190165 -0.013991666 0.14503273 -0.39268428 0.12686351 -0.11058906 -0.17786938 0.05771683
0.059608858 -0.14737844 -0.15299916 0.08491477 -0.039305355 -0.29950798 -0.21645297 0.08527942
0.11423994 0.014932945 -0.32687065 0.29833698 0.1373893 0.047981583 -0.2517907 -0.059985407
-0.048932083 0.036633573 -0.06148255 -0.11267712 0.30436325 -0.34458512 -0.07736475 0.017602539
0.064317845 0.008446188 -0.10224207 -0.10312753 -0.18215415 -0.05948406 -0.107700735 -0.24626826
-0.19466074 0.0866022 0.07434083 -0.21722974 -0.29736808 -0.11600808 -0.32141456 0.13167636
-0.13416536 -0.45989415 -0.25141585 0.056121863 -0.07827795 0.042762022 -0.29403087 -0.0492849
-0.027482506 0.17034683 0.033614773 -0.07211626 -0.35857838 -0.3300313 -0.040962305 -0.2917694
-0.14457664 -0.15963607 0.0328796 -0.3297691 -0.09280896 -0.058224518 -0.032801293 -0.35860834
-0.06477662 -0.026776707 -0.19270381 -0.047388215 -0.2610388 0.060050376 -0.07202645 0.048087686
0.10974852 -0.07012924 -0.23169032 0.1952237 -0.02054798 -0.14337626 -0.0604275 -0.08764609
-0.15333639 -0.02018856 -0.015004055 -0.2749002 0.23533113 -0.05763228 -0.050491318 -0.18381369
0.0836408 -0.00674964 -0.08240801 -0.045334026 -0.1364228 -0.09714683 -0.26742652 -0.12569982
-0.1153618 0.047487948 0.022223633 -0.054594442 0.026298052 -0.009341724 -0.11149389 0.042733464
-0.022979178 -0.43805104 -0.16111118 -0.033873655 0.050458435 -0.17106779 -0.061066397 -0.074736506
-0.084763154 0.07938023 0.13987675 0.02207119 -0.116213374 -0.09264241 0.22192974 -0.15012199
0.036655966 -0.13587907 0.13097008 -0.38806373 0.04084437 -0.21301101 0.0317997 0.05714557
-0.063912496 -0.9578126 -0.26290518 -0.32154295 -0.09132375 -0.37096897 0.07989664 -0.078268595
-0.21440627 0.018280748 -0.08417303 0.28287736 -0.21203825 -0.46673316 -0.42616966 -0.33854103
0.06812665 0.2892944 -0.12241709 -0.03279197 0.11641752 -0.54214704 0.019337593 -0.0563294
0.3347547 -0.38170275 0.23520067 0.24921536 0.43544787 0.0045034774 -0.20405434 -0.15448286
-0.18256685 -0.02219396 0.29438215 0.11096033 0.010502243 -0.74155945 -0.271903 -0.46153012
-0.10027479 -0.4625532 -0.38720322 0.00655986 0.17364083 -0.2527564 -0.037195306 -0.34338844
-0.49886388 0.04381424 0.15350652 -0.24365228 0.23130067 -0.33614925 -0.26540667 -0.08813338
-0.2341351 -0.16080073 0.16774465 -0.4257138 -0.3927506 -0.19625984 -0.19883507 -0.5568019
00000000: 4841 5b3d ebe5 8a3d dc0a 5c3d 072f 423d
00000010: d704 37be 27eb ee3d 556f 7bbe 698b 5cbc
00000020: c373 263d 2860 9b3d 6915 fcbe 1144 ac3e
00000030: e74b c2bc 1550 9ebe a9e4 3bbe a210 a6bd
00000040: 1bdf 883d 49c0 ebbc a10a 4ebe 9a21 2fbe
00000050: 3a37 ab3e e486 3bbe 9032 b8be 6234 21be
00000060: 7773 693e 94d8 85bc 57f9 2bbe dcfd 813d
00000070: 73f6 92be 698d c2bd a56b 73be de96 89be
00000080: 4755 2abd cb66 243e 34ed 833d ac7f 3abe
00000090: 42f6 afbd 66cd 24be 5ecd 103d 943b 0e3d
000000a0: 2ba9 68ba 1995 04bf 06b7 9bbe 3ec0 643d
000000b0: df31 863c 8eee 99be e57f 1fbd 58a7 b8be
000000c0: 3987 9cbd 2b4b 033e 0e97 993e d14f 95be
000000d0: 5aad 6fbe dc25 cebd f9fe 37bd 66a3 593b
000000e0: 150f 62bd 4d3d 65bc 7683 143e ea0d c9be
000000f0: 82e8 013e 847c e2bd 6423 36be 7c68 6c3d
00000100: 6b28 743d 60ea 16be d0ab 1cbe cce7 ad3d
00000110: a7fe 20bd 1c59 99be d9a5 5dbe faa6 ae3d
00000120: a1f6 e93d 50a9 743c 975b a7be a0bf 983e
00000130: c8af 0c3e 5688 443d b6ea 80be 42b3 75bd
00000140: 026d 48bd 160d 163d 20d5 7bbd 43c3 e6bd
00000150: 80d5 9b3e 766d b0be 6971 9ebd 3333 903c
00000160: 13b9 833d e161 0a3c 4a64 d1bd 8734 d3bd
00000170: 9e86 3abe 8fa5 73bd 3492 dcbd bf2d 7cbe
00000180: 2555 47be 7f5c b13d 0140 983d 7971 5ebe
00000190: a140 98be a595 edbd 7390 a4be 2bd6 063e
000001a0: a562 09be 3f77 ebbe 94b9 80be 0ae0 653d
000001b0: 3150 a0bd 3b27 2f3d 378b 96be f7de 49bd
000001c0: fe22 e1bc 666f 2e3e a5af 093d b1b1 93bd
000001d0: 9697 b7be ddf9 a8be 17c8 27bd cc62 95be
000001e0: e60b 14be a377 23be c2ac 063d 7fd7 a8be
000001f0: a012 bebd d57c 6ebd a65a 06bd 839b b7be
00000200: 9ba9 84bd d35a dbbc 2654 45be 251a 42bd
00000210: e1a6 85be 62f7 753d 9a82 93bd 98f7 443d
00000220: d5c3 e03d eb9f 8fbd 3a40 6dbe b9e8 473e
00000230: 3d54 a8bc 3ad1 12be d482 77bd cb7f b3bd
00000240: 3704 1dbe 7b62 a5bc 91d3 75bc b8bf 8cbe
00000250: a5fa 703e d30f 6cbd fccf 4ebd a839 3cbe
00000260: de4b ab3d 162c ddbb 88c5 a8bd 2cb0 39bd
00000270: 6bb2 0bbe ebf4 c6bd 21ec 88be 74b7 00be
00000280: cf42 ecbd b982 423d 560e b63c 6c9e 5fbd
00000290: 036f d73c 080e 19bc e956 e4bd 4909 2f3d
000002a0: d43e bcbc 3a48 e0be 54fa 24be 1abf 0abd
000002b0: 81ad 4e3d 652c 2fbe c220 7abd 740f 99bd
000002c0: 4e98 adbd 1a92 a23d da3b 0f3e a4ce b43c
000002d0: 4701 eebd 4ebb bdbd 8d41 633e 94b9 19be
000002e0: 9124 163d e223 0bbe 051d 063e 4ab0 c6be
000002f0: 6d4c 273d 8f1f 5abe 6740 023d 7911 6a3d
00000300: 8ee4 82bd 3533 75bf 829b 86be 47a1 a4be
00000310: f207 bbbd a5ef bdbe d9a0 a33d 494b a0bd
00000320: 518d 5bbe 82c1 953c e962 acbd 4dd5 903e
00000330: 8e20 59be a6f7 eebe e932 dabe 4055 adbe
00000340: fc85 8b3d 651e 943e d0b5 fabd df50 06bd
00000350: 4f6c ee3d 26ca 0abf df69 9e3c a8b9 66bd
00000360: f864 ab3e 8b6e c3be 72d8 703e 5032 7f3e
00000370: 06f3 de3e e891 933b 9ff3 50be c130 1ebe
00000380: cef2 3abe 1cd0 b5bc 42b9 963e 2b3f e33d
00000390: 9a11 2c3c d7d6 3dbf df36 8bbe ad4d ecbe
000003a0: de5c cdbd c6d3 ecbe 803f c6be 18f4 d63b
000003b0: e7ce 313e 4969 81be 1b5a 18bd 9cd0 afbe
000003c0: 166b ffbe 8f76 333d d030 1d3e fc7f 79be
000003d0: 15da 6c3e c11b acbe 62e3 87be 467f b4bd
000003e0: 1dc1 6fbe f2a8 24be 41c5 2b3e 29f7 d9be
000003f0: 9b16 c9be 57f8 48be 6c9b 4bbe 928a 0ebf

network.4.bias f4 [64]
-0.40148407 -0.26213494 -0.29970762 -0.2838601 0.1436574 -0.19756682 -0.5134918 0.11130027
-0.30161008 -0.54572225 0.050037663 -0.30332258 -0.20923164 -0.37607804 -0.2357362 -0.14520961
-0.14453445 -0.17152412 0.103558905 0.029112633 -0.4310424 -0.11468915 -0.24353959 -0.54858744
-0.39654315 -0.31118006 -0.17555216 -0.4577909 0.003042217 -0.27596387 -0.3642387 -0.544476
-0.37802285 -0.07283098 -0.15582587 -0.39813706 0.16423213 -0.17782345 -0.35543388 0.13793628
-0.35256124 -0.349954 -0.2319856 -0.10571693 1.8744102 -0.2098287 -0.34756643 -0.34011647
0.032447938 0.20642366 -0.29146215 -0.49114388 -0.12039128 -0.31010276 -0.20139416 -0.262301
-0.34066916 -0.31350008 -0.08339195 -0.37828735 -0.23641399 -0.3049667 -0.29197985 -0.24892516
00000000: 528f cdbe 8d36 86be 4773 99be 1c56 91be
00000010: ed1a 133e f54e 4abe 3374 03bf 65f1 e33d
00000020: a36c 9abe 74b4 0bbf 4bf4 4c3d 194d 9bbe
00000030: d240 56be 4d8d c0be d564 71be d4b1 14be
00000040: d700 14be 05a4 2fbe b116 d43d 9e7d ee3c
00000050: 97b1 dcbe 25e2 eabd 7162 79be 3a70 0cbf
00000060: b407 cbbe fe52 9fbe f2c3 33be 9263 eabe
00000070: ef5f 473b 234b 8dbe 7f7d babe c762 0bbf
00000080: 368c c1be 6928 95bd d190 1fbe 9fd8 cbbe
00000090: 782c 283e 5a17 36be 6efb b5be 2b3f 0d3e
000000a0: e882 b4be 2c2d b3be a28d 6dbe 1e82 d8bd
000000b0: acec ef3f 56dd 56be 3af4 b1be bf23 aebe
000000c0: 21e8 043d b960 533e 873a 95be 3677 fbbe
000000d0: b48f f6bd cac5 9ebe 453a 4ebe 514c 86be
000000e0: 306c aebe 1583 a0be 66c9 aabd e1ae c1be
000000f0: 8216 72be 9824 9cbe 627e 95be 3de6 7ebe

network.6.weight f4 [64]
1.2455134 0.87475413 1.1242087 1.1618384 1.6338122 1.1223356 1.4690472 1.4641019
0.9774527 1.4281186 1.3136348 0.45534617 1.5970337 1.5848873 1.0714774 1.0312026
1.0520458 1.0115436 1.6921344 1.2477734 1.300541 2.525083 1.49574 0.8354578
1.9114556 1.2304969 1.8405296 1.226315 1.9241434 1.4956646 0.62049514 0.98488456
1.2026078 1.1106075 1.8292724 1.2813879 1.8993895 1.3638217 -0.22372036 1.2314239
1.6341547 1.1708424 1.1283029 1.7082909 0.89668053 0.6144668 0.77746904 0.24056353
0.7985688 1.1341671 1.1263463 1.0381132 1.3965814 1.3012443 1.81966 1.1388214
1.5696484 0.93459266 2.096853 1.380298 0.40452212 1.7132086 1.1427088 0.89319205
00000000: fc6c 9f3f e3ef 5f3f 12e6 8f3f 1fb7 943f
00000010: c220 d13f b1a8 8f3f bd09 bc3f b167 bb3f
00000020: 573a 7a3f 97cc b63f 2f25 a83f 2223 e93e
00000030: 9a6b cc3f 96dd ca3f 2c26 893f 72fe 833f
00000040: 70a9 863f 437a 813f dc97 d83f 0ab7 9f3f
00000050: 2178 a63f f69a 2140 6974 bf3f 90e0 553f
00000060: 94aa f43f ec80 9d3f 7996 eb3f e4f7 9c3f
00000070: 554a f63f f071 bf3f c5d8 1e3f 6521 7c3f
00000080: 0def 993f 6328 8e3f 9925 ea3f 8504 a43f
00000090: 321f f33f b691 ae3f f316 65be 4c9f 9d3f
000000a0: fb2b d13f 2ade 953f 3b6c 903f 47a9 da3f
000000b0: db8c 653f b24d 1d3f 3608 473f 4956 763e
000000c0: 016f 4c3f 632c 913f 1e2c 903f e5e0 843f
000000d0: 2ec3 b23f 2c8f a63f 9eea e83f e6c4 913f
000000e0: 3dea c83f 7741 6f3f d732 0640 9bad b03f
000000f0: 861d cf3e 6b4a db3f 4844 923f 3ca8 643f

network.6.bias f4 [64]
-0.0055376915 -0.011020694 -0.006425158 0.016795125 -3.5074605e-05 0.16618198 0.21065305 0.007662296
0.009313144 -0.094086625 0.28547764 0.013481996 -0.07392353 0.16125222 -4.8738057e-05 -0.14521222
0.08989506 0.071955286 0.16909736 0.27970648 0.14538813 -0.14001548 -0.05773144 0.0013547041
0.017940648 0.0005888472 0.13025633 0.14371927 -0.16258751 -0.0014526711 -0.006856609 -0.00037245348
0.17614146 0.16430825 0.12946434 -0.021386042 0.2186304 -0.081397 0.0013251222 -0.029141078
-0.010907207 0.012038783 -0.0015677547 0.11967713 -0.063176215 0.04839056 0.015900157 -0.015037278
0.05788895 0.26495695 -0.021358175 -0.0043388503 0.2712525 0.03030806 0.14486648 0.044889208
-0.2596491 -0.008005106 -0.035439566 0.0036873075 -0.0035883423 -0.020469988 -0.0019198864 -0.22063632
00000000: 8675 b5bb 2490 34bc 228a d2bb ee95 893c
00000010: 121d 13b8 9c2b 2a3e 6fb5 573e ff13 fb3b
00000020: 2896 183c 7db0 c0bd 202a 923e 97e3 5c3c
00000030: 3865 97bd 4d1f 253e 176c 4cb8 83b2 14be
00000040: e71a b83d 4b5d 933d dc27 2d3e b035 8f3e
00000050: a0e0 143e 3860 0fbe cd77 6cbd 5490 b13a
00000060: 44f8 923c de5c 1a3a ea61 053e 252b 133e
00000070: 577d 26be 8e67 beba 68ad e0bb dc45 c3b9
00000080: 6d5e 343e 6c40 283e 4d92 043e c831 afbc
00000090: a6e0 5f3e 78b3 a6bd b9af ad3a 45b9 eebc
000000a0: 24b4 32bc 513e 453c 1e7d cdba 4819 f53d
000000b0: 8862 81bd 2e35 463d 0c41 823c ea5e 76bc
000000c0: f71c 6d3d 70a8 873e 57f7 aebc ea2c 8ebb
000000d0: 9ce1 8a3e 9c48 f83c e157 143e bfdd 373d
000000e0: baf0 84be d927 03bc 1429 11bd c1a6 713b
000000f0: 652a 6bbb adb0 a7bc b3a4 fbba 7dee 61be

network.6.running_mean f4 [64]
6e-45 6e-45 6e-45 6e-45 1.3720539 0.090921335 6e-45 1.4896898
6e-45 6e-45 0.6074013 6e-45 1.2095618e-06 0.04036226 6e-45 2.5873805e-05
0.6708575 0.39023107 0.763409 0.014969477 0.20825332 0.33689314 0.099579 6e-45
0.09798275 6e-45 0.12934959 6e-45 0.10785843 6e-45 6e-45 6e-45
0.24543172 1.5527954 0.20368527 6e-45 0.76823676 1.6722728 6e-45 0.24502434
0.08247315 6e-45 6e-45 0.33521685 6.820121 6e-45 6e-45 6e-45
0.1416692 2.1676164 6e-45 6e-45 0.6864383 0.101757824 1.3944372 0.012643496
0.4599277 6e-45 0.13628954 6e-45 6e-45 6e-45 6e-45 0.7427943
00000000: 0400 0000 0400 0000 0400 0000 0400 0000
00000010: 769f af3f f734 ba3d 0400 0000 28ae be3f
00000020: 0400 0000 0400 0000 a77e 1b3f 0400 0000
00000030: 3a58 a235 e652 253d 0400 0000 930b d937
00000040: 51bd 2b3f 5ecc c73e c66e 433f 8a42 753c
00000050: 5c40 553e 427d ac3e 13f0 cb3d 0400 0000
00000060: 2eab c83d 0400 0000 3874 043e 0400 0000
00000070: e1e4 dc3d 0400 0000 0400 0000 0400 0000
00000080: 7452 7b3e 00c2 c63f df92 503e 0400 0000
00000090: 2aab 443f 090d d63f 0400 0000 a9e7 7a3e
000000a0: afe7 a83d 0400 0000 0400 0000 8ba1 ab3e
000000b0: 6e3e da40 0400 0000 0400 0000 0400 0000
000000c0: bb11 113e 3aba 0a40 0400 0000 0400 0000
000000d0: 6cba 2f3f 6866 d03d eb7c b23f aa26 4f3c
000000e0: a57b eb3e 0400 0000 7c8f 0b3e 0400 0000
000000f0: 0400 0000 0400 0000 0400 0000 c427 3e3f

network.6.running_var f4 [64]
6e-45 6e-45 6e-45 6e-45 2.7226312 0.107435465 6e-45 2.440699
6e-45 6e-45 1.0599258 6e-45 2.5162286e-08 0.08121371 6e-45 3.0960982e-05
1.1050272 0.9641971 2.3913672 0.016937772 0.34570727 0.5806322 0.1550475 6e-45
0.12201141 6e-45 0.2222316 6e-45 0.13874091 6e-45 6e-45 6e-45
0.40876088 3.480141 0.3136766 6e-45 0.9261045 4.9437184 6e-45 0.5515132
0.17558628 6e-45 6e-45 0.716675 6.1908336 6e-45 6e-45 6e-45
0.39173248 4.3748465 6e-45 6e-45 1.2999611 0.13011321 2.9613755 0.01481576
1.1724081 6e-45 0.18974431 6e-45 6e-45 6e-45 6e-45 1.4822321
00000000: 0400 0000 0400 0000 0400 0000 0400 0000
00000010: 973f 2e40 2007 dc3d 0400 0000 6a34 1c40
00000020: 0400 0000 0400 0000 a6ab 873f 0400 0000
00000030: 7424 d832 6053 a63d 0400 0000 1adc 0138
00000040: 8871 8d3f 9fd5 763f 290c 1940 15c1 8a3c
00000050: 8b00 b13e 50a4 143f c6c4 1e3e 0400 0000
00000060: 1ee1 f93d 0400 0000 ae90 633e 0400 0000
00000070: 1912 0e3e 0400 0000 0400 0000 0400 0000
00000080: 1b49 d13e a1ba 5e40 389a a03e 0400 0000
00000090: 2f15 6d3f f132 9e40 0400 0000 f82f 0d3f
000000a0: e4cc 333e 0400 0000 0400 0000 0378 373f
000000b0: 4f1b c640 0400 0000 0400 0000 0400 0000
000000c0: 2991 c83e befe 8b40 0400 0000 0400 0000
000000d0: 2065 a63f 663c 053e 2d87 3d40 cdbd 723c
000000e0: 7811 963f 0400 0000 554c 423e 0400 0000
000000f0: 0400 0000 0400 0000 0400 0000 c8b9 bd3f

network.7.weight f4 [2, 64]
0.031841654 -0.029657252 0.025090585 -0.022032972 -0.8677154 0.4683901 0.12127798 0.698874
0.019643355 -0.015674463 0.11716307 0.03273795 -0.2902086 0.96453357 0.0035769641 -0.4260639
0.23682936 0.22940288 -0.3559647 0.68904936 0.5859334 -0.8899755 -0.3233366 0.003100979
0.71190435 0.02592912 0.49438545 0.49856204 0.24469647 0.027640468 0.026563095 -0.00073425274
0.20197205 0.13462695 -0.6019419 0.0497254 0.96642375 -0.6311576 0.020585403 -1.0086191
-0.34986174 -0.0151571175 -0.0003755993 0.5026212 -0.44941616 0.1118417 -0.035449035 0.02021465
0.2370812 0.0064072474 -0.03236977 0.0034068942 0.0051220395 0.35278597 -0.1936636 -0.37567157
-0.21224713 0.011387769 -0.30698577 -0.00033779824 0.0010529491 0.038870655 -0.008232833 -0.5475229
-0.03981401 0.064996995 -0.021635987 -0.05297486 -0.52930975 -0.45006776 -0.62437415 0.5279179
-0.06574306 1.1952933 -1.3778337 -0.18506876 1.2150694 0.1603406 -0.0014211494 -0.25646576
-0.122624986 -0.6009664 -1.1841668 -0.22308809 0.10623393 1.6071652 -0.0013203758 -0.015913539
0.9522619 -0.030327339 0.51381207 0.4408691 2.0079348 -0.03175837 -0.024953788 -0.0046142596
-1.264942 -0.83248436 -1.1382293 0.43990183 -0.21495196 -0.30881616 -0.043405253 -0.15923357
-1.3118056 -0.043690454 0.007832297 -0.17728208 0.2459405 -0.32463142 0.033186566 0.04726139
-0.42658457 -1.086112 0.3445058 0.026889903 -1.508362 -0.16827793 -1.1417445 0.034187052
0.81245315 0.02387797 0.96647274 -0.028413884 0.026119728 -0.032681115 -0.09125372 0.75588167
00000000: 656c 023d c4f3 f2bc c58a cd3c 7e7e b4bc
00000010: 9922 5ebf d4d0 ef3e 9760 f83d 68e9 323f
00000020: 1aeb a03c bb67 80bc 31f3 ef3d 3b18 063d
00000030: 3996 94be aceb 763f 806b 6a3b 0c25 dabe
00000040: 6583 723e 97e8 6a3e 0141 b6be 8a65 303f
00000050: bbff 153f 6fd5 63bf 608c a5be cb39 4b3b
00000060: 5d3f 363f 4e69 d43c 1720 fd3e 8643 ff3e
00000070: b691 7a3e 436e e23c d99a d93c de7a 40ba
00000080: c3d1 4e3e a6db 093e dd18 1abf dcac 4b3d
00000090: 8c67 773f 8b93 21bf b8a2 a83c 6e1a 81bf
000000a0: 1421 b3be 8f55 78bc 16ec c4b9 c8ab 003f
000000b0: e019 e6be 430d e53d 0233 11bd 3299 a53c
000000c0: 6ac5 723e e3f3 d13b 2a96 04bd 3346 5f3b
000000d0: c8d6 a73b 5da0 b43e c04f 46be 0658 c0be
000000e0: 5057 59be c493 3a3c 3d2d 9dbe 831a b1b9
000000f0: 1c03 8a3a d636 1f3d 01e3 06bc 762a 0cbf
00000100: 0414 23bd 251d 853d f43d b1bc 2bfc 58bd
00000110: d880 07bf 486f e6be fcd6 1fbf a125 073f
00000120: 4ca4 86bd 5fff 983f db5c b0bf aa82 3dbe
00000130: 6587 9b3f 5430 243e dc45 baba 7b4f 83be
00000140: cf22 fbbd efd8 19bf c792 97bf 3471 64be
00000150: 2d91 d93d 97b7 cd3f 7610 adba 1c5d 82bc
00000160: 70c7 733f 0a71 f8bc 3089 033f 98b9 e13e
00000170: 0182 0040 1115 02bd e36b ccbc 3733 97bb
00000180: 9fe9 a1bf b21d 55bf 7fb1 91bf d03a e13e
00000190: 5e1c 5cbe 271d 9ebe b5c9 31bd 200e 23be
000001a0: 3fe9 a7bf c3f4 32bd 0953 003c 6f89 35be
000001b0: d4d7 7b3e 1736 a6be a3ee 073d 2995 413d
000001c0: 4b69 dabe b805 8bbf 1063 b03e 3748 dc3c
000001d0: 0212 c1bf 0d51 2cbe af24 92bf b907 0c3d
000001e0: eefc 4f3f bc9b c33c c26a 773f 3cc4 e8bc
000001f0: 0af9 d53c a2dc 05bd 3be3 babd 7681 413f

network.7.bias f4 [2]
0.0546314 -0.22763413
00000000: 2dc5 5f3d ec18 69be

network.0.weight f4 [24]
0.39588082 0.23870556 0.14179258 0.23665126 1.3040411 1.119135 0.14197545 0.14981602
0.014470744 0.28104225 -0.072061285 0.36305207 0.6815044 0.39887947 0.20705767 0.051956393
0.8104407 0.87816393 0.20922184 0.64200443 1.6649243 1.0726955 -0.12055731 0.51739097
00000000: e4b0 ca3e 3b6f 743e 1332 113e b554 723e
00000010: d2ea a63f d13f 8f3f 0362 113e 5f69 193e
00000020: b316 6d3c c5e4 8f3e de94 93bd f6e1 b93e
00000030: 1377 2e3f ee39 cc3e ed06 543e 3ad0 543d
00000040: 0b79 4f3f 5acf 603f 403e 563e 675a 243f
00000050: 3d1c d53f 164e 893f c0e6 f6bd bc73 043f

network.0.bias f4 [24]
0.1758194 0.16586202 -0.014542123 0.056207746 0.1803396 0.15582776 0.07029116 -0.23961304
0.35440615 -0.35979387 0.09811024 0.1294811 0.42609802 0.3899301 0.17252572 -0.28389102
0.21936777 -0.20108575 0.052682746 -0.5107334 0.012122375 -0.055559725 0.019786233 -0.011519118
00000000: 000a 343e bcd7 293e 1642 6ebc 183a 663d
00000010: f2aa 383e 5091 1f3e d0f4 8f3d 1f5d 75be
00000020: b974 b53e e736 b8be 06ee c83d b296 043e
00000030: 8529 da3e eba4 c73e 95aa 303e 2a5a 91be
00000040: f2a1 603e 6ce9 4dbe ddc9 573d 6dbf 02bf
00000050: ed9c 463c 9892 63bd bd16 a23c afba 3cbc

network.0.running_mean f4 [24]
-5.3833876 -0.80030286 7.639549 -0.17872646 -0.2821294 4.031857 7.639549 -0.17872646
-5.4771137 -0.8094518 7.0070686 -0.05984528 -0.33568975 4.064524 7.0070686 -0.05984528
-5.5255475 -0.8116341 7.233018 -0.074396335 -0.3915453 4.090472 7.233018 -0.074396335
00000000: b644 acc0 a6e0 4cbf 2f77 f440 1204 37be
00000010: 4473 90be f904 8140 2f77 f440 1204 37be
00000020: 8444 afc0 3c38 4fbf e839 e040 5320 75bd
00000030: 87df abbe 9510 8240 e839 e040 5320 75bd
00000040: 49d1 b0c0 41c7 4fbf e274 e740 1b5d 98bd
00000050: a078 c8be 26e5 8240 e274 e740 1b5d 98bd

network.0.running_var f4 [24]
18.323265 1.0693767 406.38596 13.936783 27.810738 2.0621877 406.38596 13.936783
18.478823 1.0541937 428.27832 14.347894 27.815844 2.011908 428.27832 14.347894
18.126917 1.0492358 425.50153 15.250006 27.738882 1.9985654 425.50153 15.250006
00000000: 0c96 9241 56e1 883f 6731 cb43 10fd 5e41
00000010: 647c de41 e2fa 0340 6731 cb43 10fd 5e41
00000020: a1d4 9341 d2ef 863f a023 d643 f990 6541
00000030: d986 de41 1ac3 0040 a023 d643 f990 6541
00000040: ed03 9141 5c4d 863f 32c0 d443 0600 7441
00000050: 3be9 dd41 fed0 ff3f 32c0 d443 0600 7441

network.1.weight f4 [64, 24]
-0.013605595 -0.43496025 0.025822617 -0.032009378 -0.9284709 -0.16227375 0.19593997 -0.08615522
0.26843572 -0.029986452 0.20519157 0.1895623 -0.27811196 -0.14140798 -0.24646015 -0.0635533
-0.34997523 -0.21561384 -0.6295932 0.7042156 0.32156718 0.64407754 0.43814343 0.7633237
0.14388128 0.049564496 -0.18471003 0.18514082 0.8215715 -0.6728208 -0.035120223 0.20099019
-0.22479564 0.20051123 0.016963251 -0.053379208 0.100538746 -0.023444602 -0.1475838 0.3538214
0.12707864 0.52591574 -0.18247028 0.55246747 0.580546 0.48004505 0.14743617 0.4123721
0.10546048 -0.5730989 0.045379296 -0.25542495 0.12391801 0.35617068 0.16765484 -0.42867684
0.02645835 -0.6918691 -0.22693817 0.23544188 0.14521807 0.19026431 -0.08297666 0.26849556
0.51684225 -1.0160526 0.30254954 0.06298134 -0.4435717 0.024049282 -0.25163844 0.17064771
0.04407234 -0.40977666 -0.36695534 0.046953887 0.07807124 0.72853535 -0.36966926 0.19167073
-0.34590235 -0.3001276 0.12343576 -0.22024092 -0.36738902 0.20440616 -0.011168159 0.055771496
-0.1390352 -0.50433624 -0.1785668 -0.083593145 -0.80647665 -0.12474818 0.5895081 -0.23489955
0.068453096 -0.36259463 0.14206204 0.026970517 0.014194936 0.06399759 -0.14782888 0.17299725
-0.23643233 0.12611759 0.033559706 -0.15280594 0.10575117 0.078891486 -0.1690633 0.005353544
0.23336264 0.10428339 -0.22674644 0.2460586 -0.014942798 -0.014348607 -0.09733936 -0.12126349
-0.62227064 0.46263495 -0.087180756 -0.57360363 0.099432945 -0.15647015 0.2967652 -0.66045594
0.12193621 0.14756763 -0.2804187 -0.45035228 0.27097943 0.31979838 0.31631407 -0.30494508
0.15151177 0.20348436 0.37505645 -0.0695696 0.45980003 0.67200387 -0.46359086 -0.04665976
0.0026694064 -0.28498194 0.19130197 -0.57582337 0.4702182 -0.0096708555 -0.092361435 -0.09829406
-0.28681195 0.4037108 -0.6693956 -0.0004935351 0.26503342 -0.14207746 -0.20699225 0.5085233
-0.152201 0.102420986 0.1901039 0.42968822 0.4870285 0.48810616 -0.06861209 -0.06618475
-0.22943182 -0.56468785 -0.4670363 -0.13079472 -0.19400391 -0.56315416 -0.19200066 -0.1893939
-0.3317297 -0.21292603 0.25401068 0.04986689 -0.28168067 -0.018340621 -0.19762768 0.009870755
-0.22089349 -0.61546135 -0.08270219 0.047026243 0.04762308 1.2988098 0.11861838 0.08818501
-0.34302595 -0.34409037 0.085004464 -1.3741032 -0.17864938 -0.40891472 0.07301235 -0.38579485
-0.55906296 0.17696346 -0.5684598 -0.45769987 -0.07345786 -0.5243943 -0.04520394 -0.11717647
-0.26922527 -0.6173328 -0.069580436 0.0990318 -0.028835993 -0.15984319 0.0664966 -0.44083998
-0.10813457 -0.021538172 0.00383347 -0.26580217 1.0249153 0.16257103 0.20491345 -0.29584235
-0.050500944 -0.03669749 -0.14808476 -0.14007545 0.030959552 -0.02039182 -0.055917032 -0.42674536
-0.024504546 0.117666416 0.016368952 0.22173183 -0.9580074 0.15155168 -0.35102215 8.476553e-06
-0.04140155 -0.20801544 -0.37594625 -0.10520727 0.10708485 0.084770076 -0.2565566 0.08242311
-0.13502862 0.1580065 0.05262599 -0.25095367 -0.026963068 -0.12208305 -0.27583897 -0.2889521
00000000: 00ea 5ebc 1cb3 debe f489 d33c 441c 03bd
00000010: 45b0 6dbf 172b 26be 7da4 483e 2672 b0bd
00000020: 6870 893e 26a6 f5bc bd1d 523e 9f1c 423e
00000030: b164 8ebe 41cd 10be 0d60 7cbe 3c28 82bd
00000040: f42f b3be e0c9 5cbe 052d 21bf 7947 343f
00000050: 74a4 a43e 44e2 243f 5654 e03e 2f69 433f
00000060: 9d55 133e 2404 4b3d a024 3dbe 8e95 3d3e
00000070: 8352 523f fc3d 2cbf 39da 0fbd 5fd0 4d3e
00000080: d430 66be d152 4d3e 84f6 8a3c 28a4 5abd
00000090: 42e7 cd3d e50e c0bc 3520 17be 1428 b53e
000000a0: e720 023e 6aa2 063f 7dd9 3abe 826e 0d3f
000000b0: aa9e 143f 77c8 f53e 82f9 163e 7022 d33e
000000c0: aafb d73d 9cb6 12bf a4df 393d 0fc7 82be
000000d0: bac8 fd3d 015c b63e b6ad 2b3e 887b dbbe
000000e0: 2ebf d83c 551e 31bf 7b62 68be ad17 713e
000000f0: 0cb4 143e a6d4 423e abef a9bd 4078 893e
00000100: c64f 043f 030e 82bf c6e7 9a3e 5cfc 803d
00000110: d41b e3be 0003 c53c c1d6 80be 46be 2e3e
00000120: 3385 343d 3fce d1be 92e1 bbbe b852 403d
00000130: d0e3 9f3d 4b81 3a3f 4a45 bdbe 5545 443e
00000140: 1d1a b1be 53aa 99be e3cb fc3d d686 61be
00000150: 6a1a bcbe d94f 513e a7fa 36bc a770 643d
00000160: 3e5f 0ebe 2e1c 01bf 37da 36be e232 abbd
00000170: 4175 4ebf f97b ffbd 01ea 163f 8289 70be
00000180: 2331 8c3d 01a6 b9be b678 113e 46f1 dc3c
00000190: e091 683c 2b11 833d 7460 17be 3126 313e
000001a0: 511b 72be f824 013e e775 093d 2979 1cbe
000001b0: 1294 d83d dc91 a13d ee1e 2dbe c86c af3b
000001c0: 9ef6 6e3e 8892 d53d 3830 68be c9f6 7b3e
000001d0: a3d2 74bc 6b16 6bbc dc59 c7bd fe58 f8bd
000001e0: 214d 1fbf 7dde ec3e d38b b2bd b0d7 12bf
000001f0: 80a3 cb3d b639 20be 9cf1 973e a413 29bf
00000200: b1b9 f93d f81b 173e 0a93 8fbe 9394 e6be
00000210: d1bd 8a3e 9dbc a33e ebf3 a13e c321 9cbe
00000220: e725 1b3e 345e 503e 6607 c03e 827a 8ebd
00000230: e96a eb3e 7208 2c3f c85b edbe 4e1e 3fbd
00000240: 35f1 2e3b 27e9 91be aae4 433e 2969 13bf
00000250: 71c0 f03e 8272 1ebc fe27 bdbd 654e c9bd
00000260: 04d9 92be 2fb3 ce3e 835d 2bbf 9460 01ba
00000270: 76b2 873e c17c 11be c7f5 53be 952e 023f
00000280: 94da 1bbe 18c2 d13d 99aa 423e 1800 dc3e
00000290: cd5b f93e 0de9 f93e 7f84 8cbd df8b 87bd
000002a0: 2df0 6abe 628f 10bf 621f efbe 0def 05be
000002b0: f6a8 46be df2a 10bf d29b 44be 79f0 41be
000002c0: 7ad8 a9be 4809 5abe b00d 823e 3941 4c3d
000002d0: 7338 90be 123f 96bc e95e 4abe f2b8 213c
000002e0: e731 62be e08e 1dbf c45f a9bd 979e 403d
000002f0: 6b10 433d 663f a63f 31ee f23d 589a b43d
00000300: 19a1 afbe 9d2c b0be d216 ae3d 9de2 afbf
00000310: ddef 36be 455d d1be 8087 953d e786 c5be
00000320: c01e 0fbf e935 353e 9586 11bf a357 eabe
00000330: 1371 96bd b43e 06bf c427 39bd 38fa efbd
00000340: e5d7 89be 8609 1ebf 3080 8ebd 2fd1 ca3d
00000350: 7639 ecbc efad 23be 5f2f 883d c7b5 e1be
00000360: a875 ddbd d270 b0bc f43a 7b3b 3917 88be
00000370: 6d30 833f 0579 263e d5d4 513e a678 97be
00000380: 14da 4ebd 1b50 16bd 88a3 17be f06f 0fbe
00000390: e39e fd3c bf0c a7bc 4209 65bd 5e7e dabe
000003a0: c2bd c8bc 17fb f03d 2e18 863c ab0d 633e
000003b0: f93f 75bf 5d30 1b3e 2db9 b3be 8536 0e37
000003c0: ac94 29bd 0002 55be 077c c0be e976 d7bd
000003d0: 4d4f db3d ef9b ad3d 635b 83be 73cd a83d
000003e0: f144 0abe 75cc 213e 5a8e 573d 007d 80be
000003f0: a7e1 dcbc ae06 fabd c43a 8dbe 88f1 93be

network.1.bias f4 [64]
-0.06624624 -0.41635105 -0.052048538 -0.25097838 -0.39260596 0.27513817 -0.6556321 0.060475778
-0.579869 0.18186644 -0.5361805 -0.5251535 -0.055039052 -0.55370057 -0.040921386 -0.03927701
-0.53732497 -0.63699275 -0.57753384 -0.17640752 -0.57043564 -0.26274556 -0.5746168 0.03151931
-0.29942697 -0.7012749 -0.14380138 -0.37247708 -0.6220975 -0.6624248 0.4625163 -0.38244477
0.17421167 0.38775384 -0.16388817 -0.4675816 -0.100544095 -0.05768185 -0.28108627 -0.18052043
-0.39054227 -0.5203424 -0.63013977 -0.50800925 -0.24170625 -0.19485165 -0.46884128 0.2272547
-0.12128114 0.11019245 -0.642422 -0.35344765 -0.6983732 0.02109362 0.05404921 -0.41850176
-0.21218517 -0.028546492 0.048920162 -0.6057568 -0.8365922 0.054723024 -0.51286674 -0.13756433
00000000: 1cac 87bd f72b d5be d930 55bd 3d80 80be
00000010: a603 c9be e9de 8c3e 81d7 27bf 73b5 773d
00000020: 4b72 14bf 323b 3a3e 2043 09bf 7670 06bf
00000030: a170 61bd 52bf 0dbf 2f9d 27bd eee0 20bd
00000040: 218e 09bf f511 23bf 42d9 13bf 2ca4 34be
00000050: 1208 12bf 9686 86be 161a 13bf 641a 013d
00000060: 7e4e 99be c086 33bf ab40 13be 51b5 bebe
00000070: c841 1fbf ac94 29bf f0ce ec3e cdcf c3be
00000080: 8b64 323e ac87 c63e 4dd2 27be db66 efbe
00000090: 10ea cdbd ce43 6cbd 8aea 8fbe 59da 38be
000000a0: 28f5 c7be 2935 05bf d750 21bf e50c 02bf
000000b0: d881 77be 3187 47be f70b f0be 75b5 683e
000000c0: 3f62 f8bd 94ac e13d c575 24bf 17f7 b4be
000000d0: 96c8 32bf 87cc ac3c b462 5d3d dd45 d6be
000000e0: 1247 59be 55da e9bc 8260 483d e112 1bbf
000000f0: e82a 56bf 4025 603d 3c4b 03bf aadd 0cbe

network.3.weight f4 [64]
0.68904585 0.80419654 0.42992672 0.7402097 0.8517911 0.5494913 0.59953725 0.6757704
0.58191717 1.1744809 0.19713746 0.096273914 0.69425386 1.0574895 0.6907196 0.2598118
0.70889425 0.720142 0.69323885 0.68880045 0.44943807 0.4470447 1.1225171 0.6059803
0.5717792 0.40210634 0.29312325 0.3021242 0.7530374 0.4208291 0.1975485 0.4839995
0.6263217 0.7095491 0.7717619 0.23853536 0.6485305 0.91576004 0.59199566 0.6415494
1.0249217 0.49173087 0.6498766 0.8336281 0.43476778 0.7389245 0.5302199 0.9168583
0.5263625 0.65258145 0.36243808 0.7880959 0.8384559 0.5551767 1.3448795 0.7263228
1.1264316 0.46612936 0.38542143 0.7551237 0.7483668 0.8122898 0.5688437 0.79213846
00000000: 4f65 303f d3df 4d3f 5b1f dc3e 627e 3d3f
00000010: fb0e 5a3f 76ab 0c3f 467b 193f 4aff 2c3f
00000020: 86f8 143f 6455 963f 67de 493e 422b c53d
00000030: 9fba 313f d15b 873f 00d3 303f 0d06 853e
00000040: 187a 353f 3a5b 383f 1a78 313f 3a55 303f
00000050: bf1c e63e 0be3 e43e a4ae 8f3f 8621 1b3f
00000060: 1f60 123f e2e0 cd3e 4014 963e 06b0 9a3e
00000070: 0fc7 403f e976 d73e 274a 4a3e c8ce f73e
00000080: 9e56 203f 03a5 353f 3092 453f 9d42 743e
00000090: 1806 263f 406f 6a3f 078d 173f 953c 243f
000000a0: a230 833f 26c4 fb3e 505e 263f a768 553f
000000b0: e299 de3e 282a 3d3f 7ebc 073f 3ab7 6a3f
000000c0: b1bf 063f 940f 273f 7c91 b93e a7c0 493f
000000d0: 0ca5 563f 0f20 0e3f 0325 ac3f 4bf0 393f
000000e0: e92e 903f 82a8 ee3e f555 c53e c94f 413f
000000f0: f794 3f3f 39f2 4f3f be9f 113f 96c9 4a3f

network.3.bias f4 [64]
0.23679167 0.72906435 0.23032647 0.16425413 0.043850586 0.33270422 0.90607417 0.15590978
-0.041443404 0.40272564 0.24528745 -0.29969344 0.3912399 0.71932507 0.3807652 0.17189668
0.6237344 0.12878968 0.4817423 0.27495104 -0.45986506 0.23808624 0.49796516 0.5110206
-0.038658474 0.21768264 0.024552241 0.006354428 0.57008064 0.10443004 0.032477282 0.46477896
0.41516566 -0.113698505 0.15389743 0.075840004 0.5150252 0.3696925 0.34637746 0.42731947
0.37203643 0.55732447 0.477437 0.40968162 0.051907044 0.54326487 0.062155418 0.449658
0.36129862 0.35900962 -0.20534176 0.3746325 0.29201654 0.46239588 0.5425974 0.3475426
0.4668227 0.71206367 -0.15069589 0.40947813 0.23882672 0.76805407 0.14620015 0.7336027
00000000: 8479 723e f6a3 3a3f b4da 6b3e 3c32 283e
00000010: ac9c 333d 3558 aa3e 7af4 673f d0a6 1f3e
00000020: 8fc0 29bd 0e32 ce3e a22c 7b3e 6b71 99be
00000030: 9950 c83e b025 383f a8f3 c23e af05 303e
00000040: 0fad 1f3f 71e1 033e eda6 f63e 62c6 8c3e
00000050: 6f73 ebbe e1cc 733e 4af5 fe3e 3fd2 023f
00000060: 5958 1ebd 33e8 5e3e c821 c93c ce38 d03b
00000070: cef0 113f 6bdf d53d e606 053d 82f7 ed3e
00000080: 9890 d43e c3da e8bd 4a97 1d3e 0152 9b3d
00000090: b1d8 033f 5648 bd3e 6358 b13e 9ec9 da3e
000000a0: 8f7b be3e d1ac 0e3f 9f72 f43e cac1 d13e
000000b0: 7b9c 543d 6813 0b3f ae96 7e3d 9339 e63e
000000c0: 22fc b83e 1cd0 b73e 1c45 52be d5cf bf3e
000000d0: 3183 953e 27bf ec3e aae7 0a3f 1bf1 b13e
000000e0: 6303 ef3e ce49 363f 0650 1abe 1ea7 d13e
000000f0: fe8e 743e 319f 443f 7eb5 153e 63cd 3b3f

network.3.running_mean f4 [64]
0.37368348 0.38325116 0.9371171 0.53629375 6e-45 1.0138538 0.08856752 0.42221487
0.13841785 0.4683673 6e-45 6e-45 0.7889843 0.39673856 0.2596722 0.7155276
0.27352044 0.111714676 0.11020348 0.23144162 0.024621172 0.1213476 0.25005266 0.2720449
0.5717232 0.026125805 0.5255566 0.20551516 0.24023491 6e-45 1.048515 0.21883535
0.8314744 0.5098555 0.86278343 0.115178175 0.9377419 0.44974944 0.33525747 0.20891814
0.13204853 0.079310656 0.068663135 0.33092764 0.19040479 0.6410166 6e-45 0.85085213
0.13615713 0.9584551 0.10300629 0.16174807 0.05855459 0.47899613 0.8497564 0.21571705
0.35295162 1.1280838 0.6910189 0.19501948 0.025260774 1.0621951 0.19654547 0.58445644
00000000: 7153 bf3e 7f39 c43e e8e6 6f3f 8c4a 093f
00000010: 0400 0000 f6c5 813f e362 b53d 8c2c d83e
00000020: 69bd 0d3e d7cd ef3e 0400 0000 0400 0000
00000030: e0fa 493f 5121 cb3e c1f3 843e d12c 373f
00000040: df0a 8c3e aaca e43d 5db2 e13d 08ff 6c3e
00000050: 57b2 c93c 1785 f83d e706 803e 7849 8b3e
00000060: 745c 123f c905 d63c e18a 063f 9172 523e
00000070: 2400 763e 0400 0000 bd35 863f 6016 603e
00000080: 82db 543f e485 023f 60df 5c3f 89e2 eb3d
00000090: da0f 703f 8f45 e63e dea6 ab3e a3ee 553e
000000a0: bb37 073e a06d a23d 429f 8c3d 596f a93e
000000b0: 79f9 423e aa19 243f 0400 0000 72d1 593f
000000c0: c66c 0b3e 505d 753f f6f4 d23d 49a1 253e
000000d0: f0d6 6f3d fb3e f53e a389 593f eee4 5c3e
000000e0: 13b6 b43e 0d65 903f 9de6 303f 30b3 473e
000000f0: afef ce3c 02f6 873f 3743 493e f09e 153f

network.3.running_var f4 [64]
0.5080764 0.6348851 1.0229911 0.5099404 6e-45 0.8079231 0.05817925 0.3646684
0.16705431 0.20900111 6e-45 6e-45 0.5543028 0.41973025 0.20912282 0.6283486
0.16272977 0.07782361 0.14062172 0.24101786 0.016119454 0.09511669 0.29368716 0.26294756
0.5162702 0.01351796 0.8741648 0.20382346 0.18570518 6e-45 1.0973899 0.1657406
1.3088179 0.43823317 0.8095804 0.121738836 0.96780914 0.55759454 0.31842878 0.22972372
0.15979964 0.08127117 0.06333334 0.2375363 0.14168814 0.80042624 6e-45 1.2315409
0.08228999 0.99109644 0.06641526 0.21164224 0.048381373 0.35694665 0.9252897 0.30292204
0.2884001 1.0393984 0.6517085 0.24268103 0.016674899 1.6404238 0.172726 0.48762053
00000000: 4c11 023f d487 223f 5ff1 823f 748b 023f
00000010: 0400 0000 0cd4 4e3f 5e4d 6e3d d1b5 ba3e
00000020: 4910 2b3e 6304 563e 0400 0000 0400 0000
00000030: cae6 0d3f e2e6 d63e 4b24 563e 74db 203f
00000040: a2a2 263e fc61 9f3d 24ff 0f3e 63cd 763e
00000050: f20c 843c 8acc c23d 2a5e 963e 10a1 863e
00000060: 492a 043f 6f7a 5d3c 44c9 5f3f 19b7 503e
00000070: 8029 3e3e 0400 0000 4677 8c3f e7b7 293e
00000080: 5887 a73f 1960 e03e a940 4f3f 3652 f93d
00000090: 57c2 773f 84be 0e3f 1909 a33e b23c 6b3e
000000a0: 84a2 233e 8071 a63d e9b4 813d b73c 733e
000000b0: b216 113e bce8 4c3f 0400 0000 22a3 9d3f
000000c0: a787 a83d 7fb8 7d3f b904 883d beb8 583e
000000d0: 8c2b 463d b6c1 b63e c9df 6c3f 9918 9b3e
000000e0: 2ea9 933e 020b 853f 5ed6 263f 6081 783e
000000f0: cc99 883c 68f9 d13f 16df 303e 66a9 f93e
