checkpoint-tennis.pth (torch_old, 250808 bytes, 108 tensors)

network.0.weight f4 [24]
0.48367885 0.33547097 -0.036914755 0.37481493 1.1603522 0.97451025 0.38986668 0.07774195
0.34902433 0.26887417 0.12517448 0.39428884 0.05867861 0.3083179 0.059622306 0.22766823
0.49938235 0.5737527 -0.005799584 0.6256763 1.3143462 1.4650769 0.30020788 -0.024757156
00000000: c1a4 f73e dac2 ab3e ed33 17bd bee7 bf3e
00000010: 6c86 943f 8179 793f 9b9c c73e 2c37 9f3d
00000020: 51b3 b23e e0a9 893e bd2d 003e 3ae0 c93e
00000030: fb58 703d d8db 9d3e 8536 743d dc21 693e
00000040: 0baf ff3e 75e1 123f 700a bebb 522c 203f
00000050: 7f3c a83f a487 bb3f d9b4 993e 85cf cabc

network.0.bias f4 [24]
-0.014684305 0.20463093 -0.34193367 -0.024722636 0.23445244 0.09287621 -0.21218976 -0.19823179
0.26412725 -0.1636259 -0.010728797 0.009113446 -0.0011468105 -0.011294943 -0.02385375 -0.028741615
-0.20919731 -0.035119407 0.015764931 0.08467686 0.06795866 0.3100209 0.041330148 0.10306694
00000000: 7096 70bc c58a 513e ee11 afbe 2087 cabc
00000010: 4d14 703e e235 be3d 4648 59be 46fd 4abe
00000020: b03b 873e 8c8d 27be d6c7 2fbc 9050 153c
00000030: 9350 96ba 6d0e 39bc f168 c3bc 8973 ebbc
00000040: d237 56be 5ed9 0fbd 7525 813c 106b ad3d
00000050: e92d 8b3d 0fbb 9e3e cd49 293d c314 d33d

network.0.running_mean f4 [24]
-7.9482136 -0.46948645 1.8165123 0.12291984 0.31939143 3.625557 1.8165123 0.12291984
-8.01836 -0.47709075 2.0556269 0.030088158 0.2795209 3.5809016 2.0556269 0.030088158
-8.1592045 -0.48797986 1.8756274 0.07212209 0.24429029 3.5358865 1.8756274 0.07212209
00000000: c457 fec0 8760 f0be 7a83 e83f 66bd fb3d
00000010: 4687 a33e 2009 6840 7a83 e83f 66bd fb3d
00000020: 344b 00c1 3d45 f4be 648f 0340 717b f63c
00000030: 5d1d 8f3e 7e2d 6540 648f 0340 717b f63c
00000040: 1a8c 02c1 7fd8 f9be 8f14 f03f bfb4 933d
00000050: 3c27 7a3e f74b 6240 8f14 f03f bfb4 933d

network.0.running_var f4 [24]
12.970559 1.0260359 281.91623 13.968747 32.350277 3.079929 281.91623 13.968747
12.379702 1.0394651 295.2161 14.496289 33.808815 3.3193307 295.2161 14.496289
11.277582 1.0668325 302.72708 15.0400095 35.892544 3.7519763 302.72708 15.0400095
00000000: 6987 4f41 2555 833f 47f5 8c43 fd7f 5f41
00000010: af66 0142 8f1d 4540 47f5 8c43 fd7f 5f41
00000020: 4213 4641 310d 853f a99b 9343 cdf0 6741
00000030: 3a3c 0742 ea6f 5440 a99b 9343 cdf0 6741
00000040: fa70 3441 f88d 883f 115d 9743 e1a3 7041
00000050: f791 0f42 6120 7040 115d 9743 e1a3 7041

network.1.weight f4 [64, 24]
0.21932991 -0.13983493 0.058870126 0.15638047 -0.43798673 -0.08209323 -0.01016219 0.110574596
0.27285588 -0.069779105 0.07748217 -0.34793374 -0.17848036 0.17190051 -0.11846295 -0.051639732
0.52704054 -0.42050645 0.023453685 -0.3293407 -0.48891255 0.0126874475 0.26642713 -0.24689986
-0.21315792 -0.15136747 0.05128898 0.092198476 0.21669267 -0.33129123 0.067850046 0.046730064
-0.110009015 0.2216864 0.60552067 0.062722325 -0.094771475 0.034556028 0.35213336 0.064076975
0.3439096 0.056570947 0.16103046 -0.36153784 0.20652474 0.30754578 0.7520412 -0.17131165
-0.10142608 0.20825022 0.22243816 0.20475675 0.14985333 -0.050901532 0.074022345 0.4496292
-0.2215907 0.5783054 -0.22129898 0.083325356 -0.026025364 0.12054428 -0.20045072 0.16964285
0.115698926 0.41473028 -0.09029512 -0.40597406 -0.19613738 -0.383235 0.12609106 -0.47715265
0.119387604 -0.17113571 -0.10466479 -0.013032307 -0.41093746 0.23018524 0.045893397 0.10265656
0.11050733 -0.12452626 0.101486094 -0.027143901 -0.5009828 0.24929918 -0.11723872 -0.04677436
0.005020195 0.28389597 -0.024300074 0.004360919 -1.0102733 0.11480819 0.090940505 -0.03808323
0.017699692 -0.15452418 -0.23891574 -0.18014587 0.01985599 0.44966942 -0.24911666 -0.14305449
-0.014300597 -0.24053152 -0.24112627 -0.45190012 -0.2983991 -0.028751621 -0.1063678 -0.3869981
0.009462049 -0.04230986 0.056344368 -0.3304305 -0.1743816 -0.41207305 0.10569901 0.15276137
-0.05644388 -0.44846424 0.41893798 -0.27740026 0.06331578 -0.18793373 -0.054540977 -0.07955354
-0.038677048 -0.2078515 -0.00068148074 -0.05105062 0.107452266 0.004557335 -0.01511151 -0.17921253
0.08062503 -0.36909217 0.06458274 -0.17537576 0.45013273 0.47366259 -0.21100129 0.12645112
0.25057212 -0.30011258 0.3017562 0.027207708 -0.24763834 0.37199038 0.27050894 0.42653638
0.021989645 -0.16187894 0.41251326 -0.18377386 -0.3831417 0.49391446 0.4577912 -0.20440528
0.15071265 -0.2863821 -0.02783517 -0.1386241 -0.1632119 -0.09782367 -0.05030678 -0.58772767
-0.115539804 -0.44248235 0.4968632 -0.118598185 -0.15275982 0.29050925 0.16176192 0.33950767
-0.52084064 -0.25488105 0.10140124 -0.084451474 0.26609066 0.32889292 0.14872403 -0.03550506
-0.12215133 -0.35259604 -0.28360093 -0.23061275 0.2915543 -0.07125201 0.20660892 -0.3785012
0.11450745 0.23725598 0.08590621 0.00046755048 -0.10474182 -0.91312826 0.06295446 -0.099479765
0.043475065 0.566648 -0.44732314 -0.12787856 -0.029763496 -0.053399246 -0.28911802 -0.14478016
-0.094051674 0.34621754 0.1983908 -0.49837768 0.058127496 0.13487796 0.04233697 -0.25436926
0.3210462 -0.055997703 0.2784557 -0.17800294 -0.16778056 0.17468046 0.021203255 -0.27187657
0.0422489 0.05641714 -0.029720524 -0.10683771 -0.36342517 0.23669563 -0.046499494 -0.1423521
-0.13233636 0.11694989 0.051913913 0.03024684 -0.15006469 -0.7829178 0.034356203 -0.26016954
0.07919524 0.046866182 0.39937174 -0.11157381 0.23798607 -0.7546195 -0.21274081 0.035726316
-0.06964318 -0.056951232 0.106469914 -0.11740237 -0.09154223 0.045832608 0.07454819 -0.15462138
00000000: 0598 603e e330 0fbe cd21 713d 3422 203e
00000010: cc3f e0be 7f20 a8bd 507f 26bc ef74 e23d
00000020: c4b3 8b3e 59e8 8ebd f9ae 9e3d 5f24 b2be
00000030: 8ec3 36be b006 303e b49c f2bd 2f84 53bd
00000040: 21ec 063f 9f4c d7be f121 c03c 589f a8be
00000050: bf52 fabe 03df 4f3c 2369 883e 51d3 7cbe
00000060: 1246 5abe 1300 1bbe 6514 523d 8ed2 bc3d
00000070: afe4 5d3e 019f a9be f7f4 8a3d 0668 3f3d
00000080: 684c e1bd c201 633e 6703 1b3f 9074 803d
00000090: 8c17 c2bd 9f8a 0d3d d34a b43e ca3a 833d
000000a0: eb14 b03e f0b6 673d 2be5 243e 7d1b b9be
000000b0: 397b 533e a476 9d3e c685 403f 526c 2fbe
000000c0: 7ab8 cfbd 8c3f 553e d4c6 633e c1ab 513e
000000d0: 2773 193e 207e 50bd 0799 973d cc35 e63e
000000e0: ace8 62be d30b 143f 339c 62be 7ca6 aa3d
000000f0: 2533 d5bc ebdf f63d f442 4dbe dbb6 2d3e
00000100: 8ff3 ec3d 8757 d43e a6ec b8bd d5db cfbe
00000110: 3dd8 48be 6137 c4be 041e 013e 5a4d f4be
00000120: 7d81 f43d 333e 2fbe 7e5a d6bd 7585 55bc
00000130: 6566 d2be aeb5 6b3e b7fa 3b3d 9a3d d23d
00000140: ab51 e23d a007 ffbd f1d7 cf3d e35c debc
00000150: 6940 00bf 4948 7f3e db1a f0bd 7996 3fbd
00000160: 7380 a43b d05a 913e f310 c7bc 0ae6 8e3b
00000170: a350 81bf 8e20 eb3d 043f ba3d 29fd 1bbd
00000180: f2fe 903c 963b 1ebe 54a6 74be 2978 38be
00000190: 07a9 a23c 123b e63e 7018 7fbe e07c 12be
000001a0: 0d4d 6abc e54d 76be cee9 76be 745f e7be
000001b0: c4c7 98be 8588 ebbc 5cd7 d9bd 9d24 c6be
000001c0: b606 1b3c 1b4d 2dbd 5ac9 663d 302e a9be
000001d0: 1791 32be 3dfb d2be b978 d83d 7a6d 1c3e
000001e0: b331 67bd 1b9d e5be 0a7f d63e 6807 8ebe
000001f0: b4ab 813d b371 40be 5c66 5fbd f7ec a2bd
00000200: d36b 1ebd 06d7 54be 66a5 32ba 741a 51bd
00000210: ef0f dc3d b255 953b 4496 77bc 7d83 37be
00000220: bc1e a53d a6f9 bcbe f543 843d b495 33be
00000230: cc77 e63e e783 f23e b910 58be 677c 013e
00000240: fd4a 803e 5ba8 99be ca7f 9a3e b3e2 de3c
00000250: e894 7dbe 8675 be3e 2680 8a3e fa62 da3e
00000260: a123 b43c 98c3 25be f034 d33e 372f 3cbe
00000270: 262b c4be 5be2 fc3e 9c63 ea3e 9e4f 51be
00000280: 6b54 1a3e ada0 92be 9506 e4bc 7af3 0dbe
00000290: 0521 27be c757 c8bd 7b0e 4ebd 5275 16bf
000002a0: 22a0 ecbd 0c8d e2be da64 fe3e 9be3 f2bd
000002b0: 126d 1cbe a1bd 943e eba4 253e f3d3 ad3e
000002c0: d055 05bf c57f 82be 74ab cf3d e5f4 acbd
000002d0: 093d 883e a764 a83e 1d4b 183e c16d 11bd
000002e0: 7a2a fabd 7887 b4be 2434 91be c025 6cbe
000002f0: 9b46 953e 93ec 91bd 4a91 533e e9ca c1be
00000300: e282 ea3d 3bf3 723e 98ef af3d 9021 f539
00000310: e182 d6bd c6c2 69bf 45ee 803d 0cbc cbbd
00000320: e912 323d d80f 113f 8a07 e5be 99f2 02be
00000330: 93d2 f3bc 2bb9 5abd 4707 94be 4041 14be
00000340: 2a9e c0bd 6d43 b13e f526 4b3e 5c2b ffbe
00000350: 1917 6e3d 731d 0a3e 8869 2d3d b03c 82be
00000360: 2b60 a43e d95d 65bd bf91 8e3e 6746 36be
00000370: abce 2bbe 6fdf 323e 73b2 ad3c 6833 8bbe
00000380: 2f0d 2d3d a915 673d 7578 f3bc bbcd dabd
00000390: dd12 babe 5760 723e 4176 3ebd c0c4 11be
000003a0: 2f83 07be 6d83 ef3d afa3 543d 39c8 f73c
000003b0: 8faa 19be 4d6d 48bf 17b9 0c3d f134 85be
000003c0: 1d31 a23d c1f6 3f3d 747a cc3e cf80 e4bd
000003d0: 9fb2 733e be2e 41bf bad8 59be c255 123d
000003e0: 15a1 8ebd b245 69bd e60c da3d a770 f0bd
000003f0: 7e7a bbbd f9ba 3b3d b9ac 983d 1155 1ebe

network.1.bias f4 [64]
-0.047938764 -0.015996063 -0.51476324 -0.11826913 -0.08856973 -0.24904734 -0.2151255 -0.41405356
-0.0119828535 -0.37078264 -0.26758665 -0.5901532 -0.35640004 0.069028355 0.009405631 -0.2756635
-0.46255082 0.024063772 -0.21004145 -0.08778762 -0.41761786 -0.12856352 0.17561102 -0.17779101
-0.15485054 -0.31338128 0.50076985 -0.3460335 -0.38567132 -0.71801966 -0.19002204 -0.013805389
-0.42427018 -0.43368366 -0.25574687 -0.19239546 -0.17056198 -0.34968376 0.30868536 -0.07171269
-0.26160392 -0.35156894 0.0674601 -0.13434875 -0.21562104 -0.4896182 -0.114519484 -0.2699665
-0.18057512 -0.07289423 -0.20823532 -0.2726338 -0.17903998 -0.5224979 -0.04194864 -0.20800875
-0.54842514 -0.105789185 0.067803554 -0.431917 -0.40379658 -0.25674465 0.231413 -0.33450034
00000000: 705b 44bd 2d0a 83bc 86c7 03bf 1637 f2bd
00000010: 0c64 b5bd 4406 7fbe dc49 5cbe d4fe d3be
00000020: bb53 44bc 39d7 bdbe 1e01 89be 4814 17bf
00000030: 117a b6be bd5e 8d3d 131a 1a3c c423 8dbe
00000040: 76d3 ecbe 6321 c53c 1b15 57be ffc9 b3bd
00000050: 02d2 d5be 28a6 03be 60d3 333e d90e 36be
00000060: 2491 1ebe 8373 a0be 7432 003f 4e2b b1be
00000070: b676 c5be 23d0 37bf 2395 42be 0030 62bc
00000080: f139 d9be c90b debe 41f1 82be 5103 45be
00000090: cda7 2ebe c009 b3be 020c 9e3e 1ade 92bd
000000a0: f3f0 85be d800 b4be 8528 8a3d b892 09be
000000b0: c3cb 5cbe 3daf fabe 3189 eabd 0d39 8abe
000000c0: afe8 38be 9249 95bd a43b 55be a896 8bbe
000000d0: 4256 37be 6cc2 05bf 56d2 2bbd 3f00 55be
000000e0: 9765 0cbf 00a8 d8bd 97dc 8a3d 3a24 ddbe
000000f0: 6dbe cebe 0974 83be 88f7 6c3e a143 abbe

network.3.weight f4 [64]
0.76037514 0.5188684 0.6476911 0.50731176 0.42970756 0.6598423 0.38315642 0.38104358
0.2565537 0.48898837 0.7259128 0.41151014 0.31932724 0.40502936 0.7018411 0.5886629
0.37230325 0.4326279 0.3158399 0.7357403 0.6058602 0.7992032 0.91556317 0.1556645
0.5208569 0.5430942 0.3011494 0.3776022 0.26819697 0.48621833 0.49012986 0.9057553
0.6573662 -0.54596037 0.92205137 0.34761572 0.33872607 0.50965184 0.47963935 0.50225806
0.7036954 0.0735331 0.7291378 0.5694893 0.73172385 0.96428233 0.53700566 0.31807163
0.6929253 0.7386823 0.69896895 0.39533585 0.7818415 0.5108371 0.6622774 0.6004239
0.3187263 0.52360934 0.8028877 0.4195136 0.5331152 0.45571217 0.51163816 0.838482
00000000: f2a7 423f 8fd4 043f 15cf 253f 2fdf 013f
00000010: a102 dc3e 6deb 283f 142d c43e 2518 c33e
00000020: 025b 833e af5c fa3e 6cd5 393f 75b1 d23e
00000030: dc7e a33e 0260 cf3e dcab 333f 9db2 163f
00000040: 889e be3e 6781 dd3e c4b5 a13e 7a59 3c3f
00000050: a719 1b3f 9598 4c3f 5962 6a3f 8466 1f3e
00000060: e156 053f 3908 0b3f 4130 9a3e 1355 c13e
00000070: 1d51 893e 9cf1 f83e 4df2 fa3e 94df 673f
00000080: 2749 283f 0fc4 0bbf 8f0b 6c3f b0fa b13e
00000090: 816d ad3e 8b78 023f 4a93 f53e fc93 003f
000000a0: 6225 343f 8698 963d c6a8 3a3f 0dca 113f
000000b0: 4152 3b3f 35db 763f 3479 093f 49da a23e
000000c0: 8d63 313f 491a 3d3f a1ef 323f 7669 ca3e
000000d0: c426 483f 38c6 023f 038b 293f 61b5 193f
000000e0: 1830 a33e 430b 063f 0c8a 4d3f 7dca d63e
000000f0: 3d7a 083f 1b53 e93e b8fa 023f c2a6 563f

network.3.bias f4 [64]
0.24660236 0.61734444 0.39541844 0.06684283 -0.077626534 0.3761573 -0.043896995 0.31636217
0.17198053 -0.15955056 0.18317705 0.031674076 0.11757844 0.29755226 0.48258442 0.43888012
0.06756899 0.17208597 0.42885154 0.3402946 0.12634128 0.6012748 -0.017065393 -0.41382533
0.017116984 0.27451175 -0.4162765 -0.06327451 0.39237735 0.15825684 -0.06575996 0.30266935
0.282531 0.092695706 0.23329341 0.05233332 -0.38168678 0.118014 0.06697142 0.044775285
0.2386225 -0.06587466 0.28421026 -0.06436051 0.30717418 0.4629123 -0.003541589 -0.23130018
0.23315036 0.44863978 0.10841528 0.012457011 0.3037406 0.12146661 0.3089961 -0.0026675907
-0.04803883 -0.02025034 0.34426028 -0.16796564 0.11231288 0.02121085 -0.04088429 0.102843046
00000000: 5485 7c3e 490a 1e3f 4974 ca3e e5e4 883d
00000010: a9fa 9ebd b197 c03e 56cd 33bd 39fa a13e
00000020: aa1b 303e 3961 23be c492 3b3e adbc 013d
00000030: f7cc f03d c558 983e 4e15 f73e e5b4 e03e
00000040: 9c61 8a3d 4e37 303e 6e92 db3e 183b ae3e
00000050: 9c5f 013e 25ed 193f b9cc 8bbc eae0 d3be
00000060: eb38 8c3c ce8c 8c3e 3222 d5be 1196 81bd
00000070: afe5 c83e 150e 223e 28ad 86bd 7af7 9a3e
00000080: e7a7 903e 3fd7 bd3d 78e4 6e3e 775b 563d
00000090: 736c c3be 53b1 f13d 5028 893d 4a66 373d
000000a0: 7559 743e 4be9 86bd 0284 913e 71cf 83bd
000000b0: ef45 9d3e d702 ed3e 011a 68bb f4d9 6cbe
000000c0: f8be 6e3e 1db4 e53e d508 de3d 7e18 4c3c
000000d0: e383 9b3e 7cc3 f83d bd34 9e3e bfd2 2ebb
000000e0: 5dc4 44bd 0be4 a5bc e242 b03e 2fff 2bbe
000000f0: 4c04 e63d 60c2 ad3c 4976 27bd 609f d23d

network.3.running_mean f4 [64]
0.38551286 0.24365138 0.06980731 0.6818595 0.25334966 0.29645866 0.05082682 0.016241739
0.3774861 0.20521264 0.21620958 0.2205539 0.16147047 0.36816496 0.57720846 0.28758267
0.13214195 0.5106045 0.20855321 0.52192587 0.067792 0.36203772 0.70426714 0.20720363
0.22017322 0.112556845 0.73865044 0.16756104 0.09017683 0.04988663 0.19763352 0.27950737
0.15550563 0.14898306 0.101746716 0.17870368 0.16043675 0.20048442 0.5290712 0.58882666
0.25721413 0.0051566297 0.3641558 0.295021 0.0957459 0.03391109 0.16964589 0.12020363
0.23798476 0.3777067 0.21351072 0.105231844 0.29896924 0.03208161 0.3280529 0.3469496
0.034623478 0.23104236 0.6277944 0.234176 0.24442072 0.16549519 0.32877403 0.17911513
00000000: f161 c53e bf7f 793e 23f7 8e3d 588e 2e3f
00000010: 0cb7 813e 6ec9 973e c92f 503d 650d 853c
00000020: dc45 c13e 4323 523e 0b66 5d3e e2d8 613e
00000030: 8458 253e 1e80 bc3e efc3 133f 093e 933e
00000040: 3850 073e fab6 023f f98e 553e ef9c 053f
00000050: 88d6 8a3d 025d b93e da4a 343f 302d 543e
00000060: 1775 613e 3484 e63d 3218 3d3f 1f95 2b3e
00000070: a1ae b83d ec55 4c3d 7160 4a3e 971b 8f3e
00000080: de3c 1f3e 048f 183e 9560 d03d 19fe 363e
00000090: 8849 243e ca4b 4d3e 3671 073f 58bd 163f
000000a0: 92b1 833e f2f8 a83b a172 ba3e fe0c 973e
000000b0: 6d16 c43d 5be6 0a3d a7b7 2d3e 522d f63d
000000c0: 47b2 733e c662 c13e 8ea2 5a3e cb83 d73d
000000d0: 7f12 993e 0268 033d 8df6 a73e 61a3 b13e
000000e0: 59d1 0d3d 5e96 6c3e 22b7 203f d5cb 6f3e
000000f0: 6d49 7a3e 9277 293e 1255 a83e f569 373e

network.3.running_var f4 [64]
0.40760207 0.143029 0.047968626 0.7564251 0.14407277 0.2155342 0.027058257 0.005012049
0.38863292 0.27110347 0.24412215 0.28056717 0.13922028 0.2619813 0.53653944 0.39056203
0.07867325 0.42166045 0.09766529 0.67533284 0.03802138 0.21147868 0.6225777 0.09518764
0.13351436 0.0448753 0.15836889 0.11789695 0.039883837 0.031812847 0.11834337 0.19864805
0.12049734 0.07579822 0.03251436 0.10172496 0.067365535 0.10975045 0.24647534 0.5276009
0.15060751 0.001645054 0.23255505 0.20527862 0.052734315 0.026758006 0.08667949 0.0863908
0.12796226 0.26421407 0.19716796 0.04881626 0.21221171 0.008944051 0.10934976 0.5087059
0.014493613 0.09022949 0.67171556 0.14067347 0.124496676 0.08900463 0.11847223 0.18866451
00000000: 38b1 d03e 3276 123e c07a 443d 13a5 413f
00000010: d087 133e ffb4 5c3e 47a9 dd3c 1d3c a43b
00000020: e5fa c63e 13ce 8a3e 28fb 793e 80a6 8f3e
00000030: c38f 0e3e 6a22 863e a65a 093f bff7 c73e
00000040: 711f a13d e1e3 d73e bd04 c83d 9de2 2c3f
00000050: 4ebc 1b3d de8d 583e 4161 1f3f bdf1 c23d
00000060: fdb7 083e 2acf 373d 742b 223e f573 f13d
00000070: 3c5d 233d 304e 023d 025e f23d 656a 4b3e
00000080: 4fc7 f63d 193c 9b3d c72d 053d 2d55 d03d
00000090: f1f6 893d d8c4 e03d 0864 7c3e da10 073f
000000a0: db38 1a3e da9e d73a e922 6e3e 8f34 523e
000000b0: f0ff 573d 9b33 db3c 0485 b13d a9ed b03d
000000c0: 8a08 033e 1147 873e 66e6 493e 8ff3 473d
000000d0: 074e 593e 128a 123c c4f2 df3d 8d3a 023f
000000e0: 9e76 6d3c 3dca b83d 8df5 2b3f b50c 103e
000000f0: 1df8 fe3d 0f48 b63d 92a1 f23d 4531 413e

network.4.weight f4 [64, 64]
0.21249652 0.024875695 -0.40493643 -0.2321422 -0.0607789 0.11006834 -0.077404566 -0.40630376
-0.08888791 -0.23785001 -0.060620055 0.21935926 0.08777818 0.49743423 0.110631414 -0.0363838
0.32607907 -0.14873514 0.0009647701 0.054751903 -0.2079643 0.14350574 -0.09847916 0.008436302
0.2544055 0.009763977 -0.021300316 0.30887252 0.0021540322 -0.036155187 0.1583476 0.20253325
0.17457272 -0.37479195 -0.5804454 -0.4014663 -0.051899526 0.14803445 0.08867817 0.093716346
0.41022047 0.086218946 -0.10654744 0.40325788 0.016344855 -0.4596862 -0.85818744 -0.7062308
0.03638805 0.25760764 0.50334483 -0.013517193 0.43830815 -0.33662596 -0.17280321 0.081318766
-0.112186514 -0.07503614 -0.49611995 0.055586025 0.33362123 0.19098072 -0.13838999 -0.25736147
-0.034510113 0.02806481 -0.5462862 0.15680696 -0.051952492 -0.43462142 0.061705597 -0.58397985
-0.08700567 0.1766901 -0.4871985 -0.13177767 -0.019395465 -0.16151817 -0.10758193 -0.3478437
-0.5234061 0.059120845 0.10956076 -0.2283968 0.25051436 -0.0367088 0.19102553 0.09721354
-0.29183167 0.09932119 0.116556376 0.07965403 -0.2644967 -0.046549316 0.2288527 -0.24904625
0.1296271 -0.20087528 -0.19688025 0.05476733 0.24165405 -0.38684952 -0.18049236 0.25976038
-0.011893486 0.27233088 0.09705052 -0.25568676 -0.2095554 -0.1291868 0.14726005 -0.2977597
-0.34089094 -0.043201488 -0.2507992 -0.07416242 -0.13615158 -0.056460045 0.2742178 -0.24801522
-0.06334142 0.253626 -0.15978079 -0.003380348 -0.5576409 0.18389915 -0.04693933 -0.11990139
0.124635644 0.10034868 -0.088331014 0.1774238 -0.1538708 0.009665953 -0.8040447 0.21837024
0.18380979 0.0197501 -0.13115235 -0.11318703 -0.16991283 -0.41545483 0.08039335 -0.2506596
-0.06379187 0.04426828 -0.021585101 -0.041177593 -0.4766655 0.50273234 -0.032284763 0.22755858
0.13616212 0.24525389 -0.1552102 -0.4360969 -0.34626356 -0.50289345 -0.06090739 -0.12314684
-0.45077193 0.030347949 -0.01889982 -0.3149254 -0.01628264 -0.055213314 0.12188157 0.33691993
0.09884062 -0.5889354 0.07895459 -0.21805732 -0.57015836 -0.13175344 -0.4314391 0.16563907
-0.1994014 0.30775794 -0.20342305 0.45421964 -0.020164153 0.08550948 -0.16492978 0.1152248
-0.017077947 -0.16408613 -0.77030724 -0.027094496 -0.48449907 0.22072572 0.044552486 -0.038968243
-0.22808224 0.34636587 -0.16051742 0.13565686 -0.025504228 -0.352011 -0.35062972 -0.2163944
0.048773117 0.04593931 -0.22314207 -0.2339129 -0.26662323 -0.24192548 0.014564393 -0.4315765
-0.24318948 -0.2022079 0.37642258 0.10879062 -0.5106923 -0.6565675 0.051137194 -0.069369875
0.019892648 -0.10095755 0.031628177 0.11339686 0.003127753 -0.14277892 0.53079695 -0.5744
-0.34611306 -0.3814662 -0.3834718 -0.09612698 0.029579097 -0.07349672 0.40104586 0.24820073
-0.06343493 -0.5994876 -0.018490164 -0.27787682 -0.168632 -0.07411951 0.17830805 -0.11377588
0.13456073 0.117261 -0.46663496 0.46130854 0.26743913 -0.36390886 -0.09534575 0.01305516
-0.53285354 -0.40948352 -0.9112174 -1.1679584e-05 -0.14646505 0.13875687 -0.055528935 0.20402464
00000000: b098 593e 1dc8 cb3c d453 cfbe afb6 6dbe
00000010: 4cf3 78bd 836b e13d 4986 9ebd 0c07 d0be
00000020: dd0a b6bd f48e 73be bc4c 78bd b79f 603e
00000030: 0cc5 b33d b3af fe3e b992 e23d 2e07 15bd
00000040: d6f3 a63e 064e 18be a0e8 7c3a 8843 603d
00000050: 98f4 54be 2bf3 123e 71af c9bd 6a38 0a3c
00000060: 7041 823e 16f9 1f3c 007e aebc 8a24 9e3e
00000070: aa2a 0d3b 7617 14bd e025 223e e064 4f3e
00000080: 31c3 323e bbe4 bfbe 1298 14bf fe8c cdbe
00000090: 9994 54bd 5896 173e e79c b53d 5bee bf3d
000000a0: 6b08 d23e 8f93 b03d 8b35 dabd d177 ce3e
000000b0: a5e5 853c fd5b ebbe 2cb2 5bbf 8bcb 34bf
000000c0: a30b 153d 26e5 833e 35db 003f 3777 5dbc
000000d0: ed69 e03e 3d5a acbe 53f3 30be 748a a63d
000000e0: 0bc2 e5bd 8cac 99bd 6f03 febe 2cae 633d
000000f0: 67d0 aa3e 7390 433e 1bb6 0dbe e2c4 83be
00000100: 7a5a 0dbd 2ce8 e53c 6ad9 0bbf 0192 203e
00000110: 23cc 54bd b386 debe 02bf 7c3d b47f 15bf
00000120: 0730 b2bd 40ee 343e 1572 f9be baf0 06be
00000130: 3de3 9ebc 0565 25be ea53 dcbd 9218 b2be
00000140: f1fd 05bf b328 723d 6461 e03d dae0 69be
00000150: 6b43 803e f75b 16bd 329c 433e e417 c73d
00000160: f66a 95be e868 cb3d 1cb5 ee3d a721 a33d
00000170: 1d6c 87be 7faa 3ebd 5d58 6a3e fb05 7fbe
00000180: f7bc 043e 40b2 4dbe fa9a 49be b553 603d
00000190: 2974 773e 2411 c6be fdd2 38be 50ff 843e
000001a0: e5dc 42bc f46e 8b3e 6cc2 c63d 60e9 82be
000001b0: b195 56be 8b49 04be 57cb 163e f673 98be
000001c0: 4289 aebe 0bf4 30bd c168 80be 78e2 97bd
000001d0: 526b 0bbe a642 67bd 4766 8c3e b4f7 7dbe
000001e0: 25b9 81bd 44db 813e 939d 23be d488 5dbb
000001f0: 8ec1 0ebf 0f50 3c3e 7443 40bd dc8e f5bd
00000200: f940 ff3d 9c83 cd3d e4e6 b4bd 96ae 353e
00000210: 4f90 1dbe f25d 1e3c e0d5 4dbf 739c 5f3e
00000220: a238 3c3e f6ca a13c cd4c 06be 9ace e7bd
00000230: a1fd 2dbe 7fb6 d4be 45a5 a43d 7556 80be
00000240: 50a5 82bd a852 353d 3dd3 b0bc d6a9 28bd
00000250: 800d f4be 11b3 003f 073d 04bd 1e05 693e
00000260: 156e 0b3e d623 7b3e 6cef 1ebe 1848 dfbe
00000270: 7549 b1be a0bd 00bf 077a 79bd 6934 fcbd
00000280: 94cb e6be 439c f83c ccd3 9abc e73d a1be
00000290: 2c63 85bc 5b27 62bd 0b9d f93d c580 ac3e
000002a0: f36c ca3d 78c4 16bf f2b2 a13d 6b4a 5fbe
000002b0: e6f5 11bf 60ea 06be 96e5 dcbe 4a9d 293e
000002c0: e12f 4cbe 7392 9d3e 224e 50be 7a8f e83e
000002d0: 4b2f a5bc 981f af3d 5ae3 28be fbfa eb3d
000002e0: 0de7 8bbc 3206 28be db32 45bf 47f5 ddbc
000002f0: 4310 f8be ec05 623e ab7c 363d 2a9d 1fbd
00000300: 648e 69be de56 b13e ae5e 24be a2e9 0a3e
00000310: 3eee d0bc c93a b4be bd85 b3be 7e96 5dbe
00000320: 52c6 473d dc2a 3c3d 5b7f 64be dd86 6fbe
00000330: d782 88be 50bb 77be 7e9f 6e3c 98f7 dcbe
00000340: aa06 79be 960f 4fbe 76ba c03e 9ecd de3d
00000350: bbbc 02bf cf14 28bf 3c75 513d cb11 8ebd
00000360: e8f5 a23c d5c2 cebd 8c8c 013d 9d3c e83d
00000370: fdfa 4c3b a334 12be 4fe2 073f e10b 13bf
00000380: bb35 b1be 8a4f c3be 6a56 c4be 39de c4bd
00000390: dd4f f23c 7385 96bd e255 cd3e 5528 7e3e
000003a0: 2cea 81bd 0578 19bf af78 97bc df45 8ebe
000003b0: dead 2cbe f8cb 97bd 6396 363e 5403 e9bd
000003c0: 4aca 093e 8926 f03d c7ea eebe a230 ec3e
000003d0: c8ed 883e 4352 babe a244 c3bd 4fe5 553c
000003e0: 1769 08bf d3a7 d1be 8b45 69bf 6ef3 43b7
000003f0: effa 15be 4816 0e3e 4f72 63bd d6eb 503e

network.4.bias f4 [64]
-0.25034297 -0.3949805 -0.27844462 0.18389718 -0.5108055 -0.087642424 -0.54753166 -0.30913463
-0.52451044 -0.088305764 -0.11767511 -0.16350622 -0.13215074 -0.2101638 -0.40581396 -0.3595718
-0.39568946 -0.59776014 -0.31674936 0.4808269 -0.5556289 -0.16981395 -0.43197522 -0.30250183
-0.3821043 -0.18994047 -0.3332674 -0.15095235 -0.18081108 -0.38733354 -0.5392001 0.09975446
-0.3858932 -0.38590872 -0.49873108 -0.17656597 -0.4631437 -0.124445386 -0.32617596 -0.40539882
-0.4436318 -0.18739447 -0.26618102 -0.19423617 -0.31037155 -0.26611722 0.24704067 -0.38608357
-0.3303549 -0.1732831 -0.26941466 -0.11420728 -0.03158265 -0.10798894 -0.2288583 0.0068058255
-0.24458005 -0.39606225 -0.10935393 -0.2719211 -0.2883049 -0.15558292 -0.10983009 -0.30593196
00000000: f42c 80be e23a cabe 4b90 8ebe 8b4f 3c3e
00000010: 26c4 02bf df7d b3bd 092b 0cbf e546 9ebe
00000020: 5146 06bf a7d9 b4bd a6ff f0bd 2d6e 27be
00000030: 8652 07be 2e35 57be d9c6 cfbe cc19 b8be
00000040: cf97 cabe cf06 19bf f92c a2be f22e f63e
00000050: b23d 0ebf b5e3 2dbe db2b ddbe 85e1 9abe
00000060: 2da3 c3be c17f 42be 06a2 aabe 4193 1abe
00000070: 8a26 39be 9550 c6be 0509 0abf 114c cc3d
00000080: cb93 c5be d495 c5be ae59 ffbe b6cd 34be
00000090: 2c21 edbe 39dd febd 8900 a7be 6f90 cfbe
000000a0: b523 e3be 56e4 3fbe e148 88be d9e5 46be
000000b0: 05e9 9ebe 8440 88be 3bf8 7c3e bfac c5be
000000c0: 4724 a9be 2071 31be b8f0 89be 82e5 e9bd
000000d0: cf5c 01bd 4e29 ddbd d559 6abe 6703 df3b
000000e0: 3173 7abe acc8 cabe f4f4 dfbd 3e39 8bbe
000000f0: b39c 93be 2151 1fbe 99ee e0bd 1da3 9cbe

network.6.weight f4 [64]
1.506662 0.97276574 1.4182779 1.1573576 0.7076391 1.2934761 0.93803906 1.4235872
0.6878463 0.7411931 1.1038659 1.0561969 0.9094259 0.5963482 0.7472162 1.2174233
0.846836 -0.5227343 0.92966187 0.7486076 1.0741091 0.8956687 1.1362565 1.0126029
0.7124069 0.8739165 1.1665128 1.3876685 0.919634 1.1106201 0.86072683 1.2787895
0.9085297 0.98936254 1.3682117 1.8397077 0.67820543 1.1551241 1.474975 0.52238214
0.7181448 0.9109165 1.4407109 1.1140939 1.4329035 0.93383324 0.89957833 0.6851137
0.39638367 1.3847523 1.3070076 1.2591611 1.0679239 0.8622617 1.0049036 1.6532549
1.4430344 1.2109005 0.91161776 0.52206975 1.0358305 1.7654136 1.0829664 1.2302026
00000000: 4dda c03f 2d07 793f 218a b53f 4b24 943f
00000010: d627 353f a090 a53f 5423 703f 1b38 b63f
00000020: b216 303f d5be 3d3f 7a4b 8d3f 7631 873f
00000030: 23d0 683f 47aa 183f 9049 3f3f 87d4 9b3f
00000040: 3eca 583f ead1 05bf 52fe 6d3f bfa4 3f3f
00000050: 687c 893f 8b4a 653f da70 913f f99c 813f
00000060: 4c60 363f feb8 5f3f 4b50 953f 1f9f b13f
00000070: 226d 6b3f cd28 8e3f 9858 5c3f 60af a33f
00000080: 6795 683f dd46 7d3f 9021 af3f 8b7b eb3f
00000090: df9e 2d3f 1bdb 933f fbcb bc3f d6ba 053f
000000a0: 56d8 373f d331 693f 3769 b83f a19a 8e3f
000000b0: 6269 b73f b20f 6f3f c44a 663f 9d63 2f3f
000000c0: cdf2 ca3e 903f b13f 064c a73f 312c a13f
000000d0: bbb1 883f 2fbd 5c3f aea0 803f db9d d33f
000000e0: 5ab5 b83f cafe 9a3f c85f 693f 5da6 053f
000000f0: 1896 843f 13f9 e13f a59e 8a3f 4777 9d3f

network.6.bias f4 [64]
-0.11035387 0.010586031 -0.025993083 -0.18267186 -0.090223834 -0.035503734 0.021463512 -0.11237715
0.046314646 -0.25003082 -0.11886076 -0.023273055 0.04683275 0.06327182 -0.0005356948 0.03895631
0.07768209 -0.08640449 0.054295693 0.131628 -0.0003201698 -0.15636213 0.1379543 -0.21833168
0.089812204 0.10046589 0.07677896 -0.014667714 -0.04719745 0.005804775 -0.00042938793 0.16063136
0.14662172 0.13446984 0.0028910455 0.06145788 -0.0027830154 0.11332466 -0.043022145 0.0019991766
-0.11486626 0.2519725 0.056860283 0.105646975 -0.0053741853 -0.085967995 -0.35351008 -0.035788685
-0.046685264 0.08138182 -0.09592126 0.06467618 -0.12229281 -0.11103987 0.29615283 -0.03887843
0.03418052 0.021290744 0.086971626 -0.016988723 -0.040979184 0.24012232 -0.12350311 -0.21009429
00000000: 3601 e2bd 0871 2d3c 72ef d4bc 550e 3bbe
00000010: 46c7 b8bd 5d6c 11bd 3fd4 af3c fe25 e6bd
00000020: 6db4 3d3d 0a04 80be 456d f3bd 22a7 bebc
00000030: b3d3 3f3d a894 813d df6d 0cba a790 1f3d
00000040: ca17 9f3d d6f4 b0bd 2965 5e3d 7ec9 063e
00000050: 77dc a7b9 651d 20be e443 0d3e 5792 5fbe
00000060: 76ef b73d 0fc1 cd3d 4a3e 9d3d da50 70bc
00000070: 1d52 41bd fb35 be3b 791f e1b9 8c7c 243e
00000080: 0124 163e 76b2 093e b277 3d3b 42bb 7b3d
00000090: 4063 36bb c216 e83d fd37 30bd 9e04 033b
000000a0: 003f ebbd 8a02 813e 54e6 683d 715d d83d
000000b0: ef19 b0bb fd0f b0bd 46ff b4be 2897 12bd
000000c0: 0c39 3fbd 83ab a63d 5e72 c4bd f274 843d
000000d0: a774 fabd df68 e3bd 58a1 973e fd3e 1fbd
000000e0: df00 0c3d ed69 ae3c 2e1e b23d ef2b 8bbc
000000f0: cad9 27bd a0e2 753e 33ef fcbd f522 57be

network.6.running_mean f4 [64]
0.5356171 0.1395948 0.22307359 0.4166188 0.021936977 0.020277888 0.0007891973 0.050570805
0.06195007 0.21210888 0.1398051 0.04989227 0.2217051 0.19137722 6e-45 0.14903516
2.7153112e-29 0.010161396 0.04286989 1.7593821 6e-45 0.15102886 0.13414282 0.04014262
0.0045562163 0.63099194 0.26955128 0.25786355 0.13123055 0.0001095226 2.3070054e-16 0.9914467
0.07681254 6e-45 6e-45 0.13112094 6e-45 0.3098405 0.0854333 6e-45
8.558638e-05 0.49772805 0.04600376 0.19568554 0.019450443 0.032839503 0.7969008 0.0191638
6e-45 0.01254666 0.11161499 0.07626077 0.34391978 0.20651789 0.23706044 0.6591059
0.45479178 6e-45 0.11300913 0.021489263 0.13322864 0.36192414 0.060266525 0.13837138
00000000: 341e 093f f0f1 0e3e 676d 643e 0f4f d53e
00000010: 2db5 b33c d01d a63c 22e2 4e3a 5523 4f3d
00000020: 5bbf 7d3d 1233 593e 1129 0f3e d65b 4c3d
00000030: a906 633e 64f8 433e 0400 0000 ac9c 183e
00000040: c1ae 0910 fc7b 263c 5698 2f3d 6f33 e13f
00000050: 0400 0000 4fa7 1a3e bc5c 093e 976c 243d
00000060: 504c 953b b088 213f a002 8a3e b106 843e
00000070: 4d61 063e 80af e538 64fd 8425 73cf 7d3f
00000080: e54f 9d3d 0400 0000 0400 0000 9144 063e
00000090: 0400 0000 6aa3 9e3e a7f7 ae3d 0400 0000
000000a0: d67c b338 36d6 fe3e 706e 3c3d ca61 483e
000000b0: 8956 9f3c b782 063d b101 4c3f 67fd 9c3c
000000c0: 0400 0000 8290 4d3c 6696 e43d 9b2e 9c3d
000000d0: 4116 b03e 6d79 533e f9bf 723e 2abb 283f
000000e0: 78da e83e 0400 0000 5571 e73d 400a b03c
000000f0: 176d 083e 1f4e b93e 08da 763d 3ab1 0d3e

network.6.running_var f4 [64]
0.530388 0.1673547 0.16313985 0.48065788 0.016443538 0.016481554 0.00033709273 0.03230823
0.0611216 0.16801915 0.20371744 0.051999044 0.23427297 0.15239526 6e-45 0.20612894
1.8425454e-31 0.009303487 0.036867354 1.6969607 6e-45 0.16620162 0.17037389 0.038804475
0.0021048374 0.6537381 0.19188125 0.26193315 0.29757866 9.951964e-06 9.867872e-18 0.88628364
0.06950386 6e-45 6e-45 0.10915756 6e-45 0.38272125 0.11335671 6e-45
1.1464709e-05 0.4932789 0.06269392 0.35180664 0.009998865 0.022678344 1.2592299 0.013629049
6e-45 0.005904426 0.096539564 0.10197138 0.7637817 0.4684488 0.28155875 0.689402
0.6357661 6e-45 0.0938071 0.026404485 0.19496426 0.6316052 0.05929746 0.15903954
00000000: 82c7 073f 085f 2b3e 220e 273e ca18 f63e
00000010: 99b4 863c 5304 873c d2bb b039 a255 043d
00000020: a55a 7a3d 360d 2c3e 4e9b 503e f3fc 543d
00000030: 41e5 6f3e 810d 1c3e 0400 0000 7713 533e
00000040: 132d 6f0c a76d 183c 3902 173d 0236 d93f
00000050: 0400 0000 c230 2a3e 7e76 2e3e 71f1 1e3d
00000060: 50f1 093b 615b 273f 857c 443e 1a1c 863e
00000070: 3b5c 983e 5cf7 2637 b507 3623 7ce3 623f
00000080: 0a58 8e3d 0400 0000 0400 0000 008e df3d
00000090: 0400 0000 0af4 c33e 9027 e83d 0400 0000
000000a0: 8d58 4037 0d8f fc3e ac65 803d 0020 b43e
000000b0: 48d2 233c efc7 b93c 722e a13f 604c 5f3c
000000c0: 0400 0000 ea79 c13b 89b6 c53d 5fd6 d03d
000000d0: 3387 433f 85d8 ef3e 7828 903e a67c 303f
000000e0: 91c1 223f 0400 0000 f01d c03d 384e d83c
000000f0: b6a4 473e e1b0 213f e5e1 723d 43db 223e

network.7.weight f4 [2, 64]
-0.03786542 0.10204296 -0.19853903 0.14868389 -0.046699602 -0.031104581 -0.00036151166 0.4605108
-0.2164693 0.37195012 -0.04074862 0.28663847 -0.8256531 -0.527157 -0.0016504474 -0.21183316
-0.024626702 0.46918324 -0.1940945 -0.6379694 0.0027625323 0.20658556 -0.8465344 0.7385883
-0.049706176 -0.6065249 0.030426232 0.047959737 0.48656526 -0.31247967 0.0010943299 -0.28411365
-0.21738833 0.30436113 0.5301409 -0.643642 -0.00939307 -0.5282909 -0.2958682 -0.03391716
-0.34335688 -0.956785 -0.5644354 0.027830377 -0.3219513 0.5546516 0.08950213 0.3417125
-0.053653076 -0.027987953 0.72951406 0.5574171 -0.58507484 -0.10916412 -0.8951271 -0.38306206
-0.24322616 0.44396126 -0.7946945 0.0044615422 0.55373836 -0.94505477 0.6459437 0.28708732
-0.89035046 0.41451517 0.63370824 0.6402615 0.18583475 0.46471807 0.032611102 0.07651292
-0.43659294 0.05009686 0.23199801 0.47614273 -0.26233393 0.34267965 -0.0023741887 0.89571637
-0.6950992 -0.07926469 -0.589163 -0.4400135 -0.0045576426 0.53578776 -0.010040103 -0.22050248
-0.42334983 -0.61405313 0.84911835 0.6839078 0.6613763 0.09467042 -0.004382056 0.184396
-0.40446034 -0.5899176 0.0018761477 -0.88764787 -0.052039295 -0.17723356 0.6119347 -0.064084485
0.6531448 0.371121 0.4731654 -0.8961064 -0.34284154 0.45938438 0.3127054 -0.45248228
0.35922188 -0.6703868 0.026005825 0.0715914 0.13056241 0.5545312 0.16728477 0.7779956
0.7935602 -0.11229308 -0.053049352 -0.22924076 0.1634657 -0.012925357 -0.14430977 -0.31387526
00000000: c518 1bbd e6fb d03d d14d 4bbe 9740 183e
00000010: 1548 3fbd 09cf febc 4689 bdb9 12c8 eb3e
00000020: 21aa 5dbe 3f70 be3e 06e8 26bd 47c2 923e
00000030: 005e 53bf c3f3 06bf d353 d8ba cbea 58be
00000040: f0bd c9bc c938 f03e b5c0 46be f651 23bf
00000050: 9a0b 353b 2a8b 533e 7ab6 58bf 1f14 3d3f
00000060: b498 4bbd 3745 1bbf 6f40 f93c 6e71 443d
00000070: 151f f93e 56fd 9fbe 9e6f 8f3a 5877 91be
00000080: 0c9b 5ebe 39d5 9b3e 50b7 073f b9c5 24bf
00000090: 64e5 19bc 133e 07bf 097c 97be b8ec 0abd
000000a0: 79cc afbe ddef 74bf d77e 10bf 88fc e33c
000000b0: cdd6 a4be a6fd 0d3f e54c b73d f1f4 ae3e
000000c0: 54c3 5bbd fe46 e5bc 6fc1 3a3f e3b2 0e3f
000000d0: 77c7 15bf 7091 dfbd 0d27 65bf b620 c4be
000000e0: 4710 79be e44e e33e 1971 4bbf 2132 923b
000000f0: ccc1 0d3f 1cef 71bf 915c 253f 1cfd 923e
00000100: 02ee 63bf 553b d43e b43a 223f 2de8 233f
00000110: 774b 3e3e 87ef ed3e 3893 053d ceb2 9c3d
00000120: 1c89 dfbe 5d32 4d3d e390 6d3e fbc8 f33e
00000130: a250 86be b573 af3e 4798 1bbb ab4d 653f
00000140: 05f2 31bf 8755 a2bd 63d3 16bf 7349 e1be
00000150: 4758 95bb 6329 093f 3f7f 24bc 67cb 61be
00000160: 4fc1 d8be 9632 1dbf d25f 593f 9514 2f3f
00000170: f54f 293f 91e2 c13d 5a97 8fbb 4ed2 3c3e
00000180: 6d15 cfbe d704 17bf 12e9 f53a e43c 63bf
00000190: 2827 55bd b77c 35be c1a7 1c3f ba3e 83bd
000001a0: 7f34 273f 9203 be3e bc42 f23e 3b67 65bf
000001b0: ed88 afbe 6e34 eb3e ec1a a03e c2ab e7be
000001c0: eeeb b73e 789e 2bbf 2b0a d53c 839e 923d
000001d0: 27b2 053e c2f5 0d3f b34c 2b3e b82a 473f
000001e0: c326 4b3f eaf9 e5bd 474a 59bd 17be 6abe
000001f0: 8d63 273e e0c4 53bc f1c5 13be 42b4 a0be

network.7.bias f4 [2]
0.07572418 -0.18040101
00000000: 4715 9b3d 0bbb 38be

network.0.weight f4 [24]
0.46408424 0.3480191 -0.03121161 0.3883924 1.1322645 0.9770762 0.3851017 0.09778287
0.3638361 0.28201428 0.12892525 0.39105192 0.07741305 0.31800768 0.04618092 0.23000562
0.5013458 0.57279146 -0.010165579 0.6229113 1.3097928 1.4627768 0.30481648 -0.027032102
00000000: 739c ed3e 8f2f b23e 7eaf ffbc 5edb c63e
00000010: 0bee 903f aa21 7a3f 0d2c c53e 6342 c83d
00000020: ba48 ba3e 2d64 903e fb04 043e f537 c83e
00000030: bc8a 9e3d e7d1 a23e 3428 3d3d 9886 6b3e
00000040: 3358 003f 76a2 123f 878d 26bc 1d77 1f3f
00000050: 4aa7 a73f 453c bb3f e810 9c3e 6d72 ddbc

network.0.bias f4 [24]
-0.024462217 0.22258921 -0.3513704 -0.016908152 0.22562708 0.08125562 -0.2138786 -0.20063423
0.26305085 -0.15512182 0.0053181183 0.017179864 -0.009282334 -0.017574375 -0.016745603 -0.027710233
-0.21589135 -0.016315134 0.030935189 0.09687168 0.076302476 0.31659687 0.03307854 0.119531274
00000000: fd64 c8bc 6dee 633e d2e6 b3be f782 8abc
00000010: c90a 673e 5969 a63d fe02 5bbe 0f73 4dbe
00000020: 9aae 863e 41d8 1ebe 9c43 ae3b c9bc 8c3c
00000030: ee14 18bc 23f8 8fbc 132e 89bc 9200 e3bc
00000040: 9f12 5dbe 51a7 85bc cb6b fd3c a964 c63d
00000050: 7944 9c3d fc18 a23e 5d7d 073d d0cc f43d

network.0.running_mean f4 [24]
-7.845994 -0.46672124 1.889806 0.06347231 0.3597496 3.59025 1.889806 0.06347231
-8.001654 -0.47747466 1.7062948 0.06527065 0.32919836 3.5650866 1.7062948 0.06527065
-8.118318 -0.4849264 2.3757448 0.12921819 0.2771599 3.533859 2.3757448 0.12921819
00000000: 6212 fbc0 16f6 eebe 2ae5 f13f c5fd 813d
00000010: 1931 b83e a8c6 6540 2ae5 f13f c5fd 813d
00000020: c606 00c1 8f77 f4be de67 da3f 9eac 853d
00000030: b08c a83e 612a 6440 de67 da3f 9eac 853d
00000040: a1e4 01c1 4648 f8be 340c 1840 c651 043e
00000050: e7e7 8d3e bf2a 6240 340c 1840 c651 043e

network.0.running_var f4 [24]
13.539526 1.0216825 285.4107 14.128518 31.971441 3.1981072 285.4107 14.128518
12.416336 1.0523291 292.70303 14.58095 33.838524 3.44157 292.70303 14.58095
12.027598 1.0780885 299.74194 14.268765 35.97081 3.8828619 299.74194 14.268765
00000000: e6a1 5841 7ec6 823f 92b4 8e43 690e 6241
00000010: 83c5 ff41 caad 4c40 92b4 8e43 690e 6241
00000020: 50a9 4641 b8b2 863f fd59 9243 924b 6941
00000030: a65a 0742 af42 5c40 fd59 9243 924b 6941
00000040: 0b71 4041 cefe 893f f8de 9543 dd4c 6441
00000050: 1ce2 0f42 cf80 7840 f8de 9543 dd4c 6441

network.1.weight f4 [64, 24]
0.230577 -0.14236726 0.08497582 0.11980334 -0.40363446 -0.061537914 -0.004754815 0.09947963
0.2792907 -0.0715861 0.096367426 -0.38093284 -0.15929823 0.18949203 -0.0978528 -0.08219377
0.5397341 -0.43370092 0.021129778 -0.3209363 -0.4785834 0.023658866 0.24754067 -0.27607545
-0.206455 -0.16702092 0.04702665 0.10874544 0.21203372 -0.34222916 0.097066835 0.055994827
-0.10018555 0.20309472 0.6308708 0.071810074 -0.109224185 0.028967759 0.3766429 0.07288964
0.35674626 0.057545293 0.16456495 -0.34930515 0.19432124 0.28232542 0.763562 -0.17616396
-0.1113924 0.19691037 0.21812156 0.22409555 0.14718932 -0.07849359 0.08156596 0.4590073
-0.23186839 0.5600809 -0.2268654 0.09576055 -0.02297763 0.09692551 -0.20833254 0.18155454
0.09984398 0.40393472 -0.088705495 -0.4037467 -0.18949656 -0.38379627 0.113656215 -0.4796388
0.13101353 -0.1990712 -0.097038366 -0.014597744 -0.40617138 0.23236054 0.06234885 0.1052309
0.124651745 -0.1494534 0.10724499 -0.021051217 -0.48886207 0.25389287 -0.1137053 -0.041263677
0.029466996 0.25684828 -0.026118744 -0.0012296558 -0.99099034 0.11690116 0.08651534 -0.041726544
0.03129585 -0.15525569 -0.22424267 -0.16772935 0.0067970296 0.4552175 -0.2521269 -0.12366203
-0.018400747 -0.22619952 -0.28555757 -0.42215094 -0.30200067 -0.025514843 -0.1555174 -0.3573405
0.02019487 -0.037559334 0.046401735 -0.33311638 -0.1754188 -0.40728953 0.105756246 0.13991567
-0.07295644 -0.4590669 0.41940883 -0.2627726 0.065940455 -0.18731761 -0.075725265 -0.07416083
-0.047982294 -0.21163069 0.036244128 -0.04321558 0.11099715 -0.0069262497 0.018908553 -0.17313688
0.07838461 -0.38231006 0.044334866 -0.15929742 0.4365653 0.47572175 -0.13680878 0.12453089
0.23038025 -0.3057992 0.30030382 0.06918197 -0.24875362 0.3876749 0.26282957 0.44803607
-0.0026596237 -0.15635993 0.3855919 -0.14765902 -0.3886054 0.50203574 0.43907315 -0.16989352
0.13369115 -0.27514935 -0.04061081 -0.12380802 -0.16432871 -0.100097425 -0.024192743 -0.590776
-0.117671646 -0.44165987 0.48562104 -0.15539454 -0.12911378 0.28287455 0.18123026 0.32496083
-0.50447905 -0.26622126 0.120583594 -0.11701801 0.2700603 0.31643766 0.16667424 -0.06516887
-0.11743974 -0.3652967 -0.2878415 -0.22510993 0.2794884 -0.08061341 0.22326776 -0.37202793
0.12685476 0.23147474 0.103968024 0.017837558 -0.10465192 -0.9091619 0.088249 -0.06992194
0.049740978 0.58500737 -0.42961052 -0.11210249 -0.030753994 -0.03194519 -0.26833004 -0.12696607
-0.09311896 0.36913675 0.2032852 -0.4640872 0.054533046 0.13900036 0.010554687 -0.27982002
0.31357613 -0.021869978 0.2663913 -0.17906979 -0.18834457 0.20657963 0.004580554 -0.28287184
0.03345625 0.08145009 -0.05843927 -0.12516081 -0.38507837 0.251004 -0.080445625 -0.1627628
-0.13770638 0.1319205 0.05705359 -0.009618511 -0.17032136 -0.7584171 0.06262653 -0.24129525
0.05816768 0.07566818 0.385333 -0.06763351 0.2313911 -0.79294974 -0.18777333 0.058801997
-0.06797222 -0.009958667 0.13687421 -0.087788254 -0.09847761 0.01343548 0.10503777 -0.12658611
00000000: 611c 6c3e b9c8 11be cd07 ae3d 745b f53d
00000010: 2da9 cebe 2e0f 7cbd 47ce 9bbb fabb cb3d
00000020: 31ff 8e3e bc9b 92bd 495c c53d a109 c3be
00000030: 131f 23be 330a 423e 0c67 c8bd 3555 a8bd
00000040: 042c 0a3f 0c0e debe 5b18 ad3c c351 a4be
00000050: e208 f5be 3dd0 c13c 4d7b 7d3e c359 8dbe
00000060: f168 53be 8807 2bbe 049f 403d eeb5 de3d
00000070: 5e1f 593e a938 afbe faca c63d d55a 653d
00000080: 152e cdbd 10f8 4f3e c080 213f 2911 933d
00000090: eeb0 dfbd cb4d ed3c 57d7 c03e 2a47 953d
000000a0: 72a7 b63e 9db4 6b3d b783 283e 20d8 b2be
000000b0: 26fc 463e f58c 903e cd78 433f 5364 34be
000000c0: b321 e4bd dfa2 493e 425b 5f3e 4e79 653e
000000d0: ccb8 163e 3fc1 a0bd 0e0c a73d 0103 eb3e
000000e0: e86e 6dbe 7661 0f3f 674f 68be 1b1e c43d
000000f0: 953b bcbc e280 c63d 2055 55be 6fe9 393e
00000100: 007b cc3d 88d0 ce3e 3aab b5bd e3b7 cebe
00000110: 630b 42be f280 c4be 97c4 e83d 3793 f5be
00000120: 6928 063e 52d9 4bbe 0dbc c6bd 602b 6fbc
00000130: b2f5 cfbe ecef 6d3e 8261 7f3d 4c83 d73d
00000140: 6a49 ff3d 500a 19be 43a3 db3d 9a73 acbc
00000150: 214c fabe 3ffe 813e 53de e8bd 1a04 29bd
00000160: c564 f13c 9e81 833e faf6 d5bc 672c a1ba
00000170: 8bb1 7dbf e069 ef3d f42e b13d 74e9 2abd
00000180: 1430 003d 59fb 1ebe df9f 65be 3ec1 2bbe
00000190: 9eb9 de3b 4512 e93e c716 81be 8542 fdbd
000001a0: 2abd 96bc d9a0 67be 9a34 92be 2b24 d8be
000001b0: d59f 9abe 8104 d1bc f43f 1fbe 56f5 b6be
000001c0: b66f a53c d1d7 19bd bf0f 3e3d 3b8e aabe
000001d0: fca0 33be 4188 d0be bb96 d83d 0e46 0f3e
000001e0: 306a 95bd d10a ebbe c1bc d63e 218a 86be
000001f0: ca0b 873d 30d0 3fbe d915 9bbd a2e1 97bd
00000200: 1589 44bd b7b5 58be b974 143d d202 31bd
00000210: 7952 e33d 98f5 e2bb 1ce6 9a3c cb4a 31be
00000220: 1c88 a03d 25be c3be 7a98 353d dd1e 23be
00000230: 7d85 df3e cd91 f33e 9a17 0cbe 0d0a ff3d
00000240: cde8 6b3e b691 9cbe 6cc1 993e 47af 8d3d
00000250: 45b9 7ebe 537d c63e 9991 863e fc64 e53e
00000260: 154d 2ebb d11c 20be 4d6c c53e ed33 17be
00000270: 49f7 c6be 6a85 003f 32ce e03e 91f8 2dbe
00000280: 55e6 083e 60e0 8cbe 8557 26bd 0f8f fdbd
00000290: c945 28be e1ff ccbd dc2f c6bc 193d 17bf
000002a0: d5fd f0bd 3e21 e2be 52a3 f83e bf1f 1fbe
000002b0: 6736 04be efd4 903e 6d94 393e 4461 a63e
000002c0: 8a25 01bf 274e 88be 88f4 f63d 23a7 efbd
000002d0: 5845 8a3e 1e04 a23e a7ac 2a3e 4277 85bd
000002e0: 3f84 f0bd 2b08 bbbe f65f 93be 3883 66be
000002f0: 1b19 8f3e a518 a5bd 4ea0 643e 727a bebe
00000300: 37e6 013e b707 6d3e 30ed d43d 1220 923c
00000310: bf53 d6bd d6be 68bf e4bb b43d 3c33 8fbd
00000320: 32bd 4b3d 0bc3 153f e9f5 dbbe fe95 e5bd
00000330: cdef fbbc f6d8 02bd 8e62 89be 6503 02be
00000340: 27b5 bebd 7eff bc3e ff29 503e d69c edbe
00000350: 0b5e 5f3d 1c56 0e3e 91ed 2c3c 9244 8fbe
00000360: 0d8d a03e ab28 b3bc 7164 883e 125e 37be
00000370: 66dd 40be 9c89 533e 7918 963b 94d4 90be
00000380: 6c09 093d 4ecf a63d 045e 6fbd 282a 00be
00000390: fe28 c5be 9983 803e adc0 a4bd 4bab 26be
000003a0: e702 0dbe 2b16 073e 06b1 693d f696 1dbc
000003b0: b968 2ebe a027 42bf 5742 803d 1a16 77be
000003c0: 3c41 6e3d ebf7 9a3d 5e4a c53e 7083 8abd
000003d0: caf1 6c3e c1fe 4abf a747 40be 5dda 703d
000003e0: 0535 8bbd ad29 23bc c128 0c3e 54ca b3bd
000003f0: a1ae c9bd 7d20 5c3c 0b1e d73d ca9f 01be

network.1.bias f4 [64]
-0.07335019 -0.01431698 -0.51036745 -0.12937197 -0.10245358 -0.24545036 -0.21220951 -0.4041503
-0.03416665 -0.35614103 -0.25696102 -0.6007965 -0.3510333 0.042096138 0.00978486 -0.26471582
-0.45587453 0.023757884 -0.2018253 -0.064849064 -0.3983807 -0.11822702 0.18443218 -0.20051615
-0.16589895 -0.29654774 0.46959278 -0.40411255 -0.33563608 -0.71500325 -0.1921799 -0.014206962
-0.42276275 -0.45988813 -0.2662919 -0.21621802 -0.1790714 -0.36957437 0.3218283 -0.05755918
-0.24834643 -0.35207763 0.066826865 -0.14321432 -0.21100256 -0.48015508 -0.11930124 -0.24810651
-0.1797394 -0.09639572 -0.2138748 -0.2528621 -0.17989235 -0.52100295 -0.053633288 -0.20280392
-0.53623664 -0.09754011 0.070153125 -0.4325144 -0.3976487 -0.25293145 0.22170222 -0.33964112
00000000: a038 96bd c491 6abc 71a7 02bf 167a 04be
00000010: 2fd3 d1bd 5757 7bbe 734d 59be caec cebe
00000020: 54f2 0bbd 1e58 b6be 6590 83be cdcd 19bf
00000030: a3ba b3be 006d 2c3d ad50 203c d588 87be
00000040: 6368 e9be e59f c23c 4bab 4ebe 96cf 84bd
00000050: 8ef8 cbbe 0221 f2bd cadb 3c3e 1b54 4dbe
00000060: 6ae1 29be 1bd5 97be 776e f03e d7e7 cebe
00000070: 7ed8 abbe 740a 37bf cfca 44be 51c4 68bc
00000080: 5c74 d8be 7576 ebbe 6957 88be 4268 5dbe
00000090: 7e5e 37be da38 bdbe aec6 a43e 2dc3 6bbd
000000a0: 874e 7ebe 8543 b4be 86dc 883d c6a6 12be
000000b0: 0e11 58be e3d6 f5be 3554 f4bd a20f 7ebe
000000c0: 9b0d 38be 1f6b c5bd ff01 5bbe 2477 81be
000000d0: b335 38be 7360 05bf 94ae 5bbd d5ab 4fbe
000000e0: ce46 09bf 1cc3 c7bd 71ac 8f3d 8772 ddbe
000000f0: 9c98 cbbe 3b80 81be e805 633e 71e5 adbe

network.3.weight f4 [64]
0.7339777 0.50417495 0.67124474 0.48722127 0.44552118 0.65210056 0.37854657 0.37733123
0.27402347 0.46684793 0.7232143 0.39036044 0.31787193 0.42705426 0.7054566 0.5990122
0.38069606 0.44546348 0.32764372 0.7313588 0.5953304 0.78839785 0.89097464 0.17134778
0.53608364 0.5427464 0.28802684 0.36695156 0.29504693 0.49739644 0.48562002 0.90198064
0.6588202 -0.536827 0.91565955 0.345311 0.34628487 0.54222834 0.49114817 0.49510002
0.6464008 0.109269045 0.7258301 0.5634525 0.726938 0.92619395 0.53555936 0.32174623
0.69339633 0.7421874 0.70646834 0.37839457 0.78966683 0.51447743 0.6799416 0.59169316
0.32933134 0.51446474 0.8109003 0.40360853 0.5444593 0.45069256 0.5094355 0.83941424
00000000: f6e5 3b3f 9c11 013f b2d6 2b3f 1175 f93e
00000010: 5a1b e43e 10f0 263f dbd0 c13e 8f31 c13e
00000020: ce4c 8c3e b106 ef3e 9324 393f 53dd c73e
00000030: 1cc0 a23e dba6 da3e ce98 343f dd58 193f
00000040: 98ea c23e ca13 e43e ebc0 a73e 553a 3b3f
00000050: 9367 183f 71d4 493f ea16 643f cb75 2f3e
00000060: c73c 093f 6ef1 0a3f 4178 933e 13e1 bb3e
00000070: 6410 973e bfaa fe3e 30a3 f83e 34e8 663f
00000080: 71a8 283f 7f6d 09bf aa68 6a3f 9acc b03e
00000090: 404c b13e 7acf 0a3f c677 fb3e c07d fd3e
000000a0: 867a 253f 73c8 df3d 00d0 393f 6c3e 103f
000000b0: 9c18 3a3f 0c1b 6d3f 6b1a 093f ecbb a43e
000000c0: 6c82 313f feff 3d3f 1cdb 343f efbc c13e
000000d0: 9b27 4a3f cbb4 033f a710 2e3f 3479 173f
000000e0: 1e9e a83e f6b3 033f 2997 4f3f c7a5 ce3e
000000f0: af61 0b3f 2dc1 e63e 5d6a 023f dae3 563f

network.3.bias f4 [64]
0.2343557 0.6391448 0.3861216 0.072299175 -0.08940967 0.36728337 -0.053271744 0.31133974
0.16093954 -0.16508432 0.1889996 0.024283346 0.12326683 0.29208753 0.4888226 0.4317409
0.07180782 0.18343544 0.4401848 0.34609675 0.12944663 0.5934885 -0.0007565035 -0.41618988
0.011826388 0.266975 -0.4184726 -0.08349011 0.3892224 0.15038167 -0.04184103 0.2928672
0.28411192 0.08058899 0.2421515 0.04731566 -0.38281536 0.1035378 0.06549392 0.06035961
0.22888389 -0.059076987 0.30175802 -0.060238145 0.30527365 0.4614568 -0.012067542 -0.22722152
0.22272795 0.45615202 0.0978047 0.02018538 0.3002307 0.111045554 0.3013715 -0.017491082
-0.05874357 -0.042962138 0.33597928 -0.15163368 0.102847144 0.03840173 -0.024806017 0.09295191
00000000: f1fa 6f3e fe9e 233f bbb1 c53e 9711 943d
00000010: 6b1c b7bd 910c bc3e 7933 5abd ec67 9f3e
00000020: 56cd 243e dd0b 29be 1c89 413e deed c63c
00000030: 5273 fc3d 7f8c 953e f546 fa3e 250d dd3e
00000040: fa0f 933d 80d6 3b3e e75f e13e 9833 b13e
00000050: a88d 043e ddee 173f 1750 46ba d716 d5be
00000060: 77c3 413c f2b0 883e 0a42 d6be ddfc aabd
00000070: 2948 c73e a7fd 193e 8061 2bbd b1f2 953e
00000080: 1e77 913e d70b a53d 90f6 773e 11ce 413d
00000090: 6000 c4be a00b d43d ad21 863d a33b 773d
000000a0: 8a60 6a3e b6fa 71bd 0780 9a3e 46bc 76bd
000000b0: d44c 9c3e 1144 ec3e f1b6 45bc c2ac 68be
000000c0: cc12 643e c28c e93e d54d c83d cf5b a53c
000000d0: d7b7 993e da6b e33d 5e4d 9a3e 7549 8fbc
000000e0: 199d 70bd 11f9 2fbd 7a05 ac3e dc45 1bbe
000000f0: 86a1 d23d 224b 1d3d fd35 cbbc 925d be3d

network.3.running_mean f4 [64]
0.33253273 0.2433994 0.0754069 0.6632964 0.23086204 0.29231972 0.04496498 0.01258528
0.35682523 0.20013054 0.21006794 0.2155042 0.14778072 0.32634538 0.59011054 0.310106
0.13254854 0.535281 0.22655974 0.5308331 0.08099068 0.40042332 0.7283191 0.17959954
0.20502952 0.12214109 0.6759096 0.1334417 0.14718135 0.04179365 0.20569345 0.25874415
0.1615006 0.112167135 0.09294575 0.15254632 0.16721973 0.1994807 0.55052775 0.6143355
0.27308327 0.004133115 0.35103065 0.28000495 0.08873605 0.033521377 0.1347332 0.12900583
0.23195006 0.33706787 0.1868074 0.12017999 0.3071592 0.029539354 0.29838398 0.34644467
0.031707548 0.23314163 0.62699884 0.23283465 0.2774531 0.16813405 0.30732504 0.16938467
00000000: bb41 aa3e b13d 793e ef6e 9a3d cbcd 293f
00000010: 1967 6c3e eeaa 953e 332d 383d 7e32 4e3c
00000020: ccb1 b63e 05ef 4c3e 0d1c 573e 22ad 5c3e
00000030: d453 173e be16 a73e 7c11 173f 37c6 9e3e
00000040: ceba 073e 2d08 093f 47ff 673e aee4 073f
00000050: 71de a53d 4904 cd3e 1f73 3a3f f1e8 373e
00000060: 42f3 513e 1c25 fa3d 6908 2d3f f1a4 083e
00000070: b5b6 163e d12f 2b3d 4ea1 523e 1d7a 843e
00000080: 6a60 253e e2b7 e53d 575a be3d 1a35 1c3e
00000090: a63b 2b3e ab44 4c3e 63ef 0c3f 1745 1d3f
000000a0: 92d1 8b3e 156f 873b 4aba b33e cf5c 8f3e
000000b0: 3fbb b53d b64d 093d 80f7 093e 1b1a 043e
000000c0: 5184 6d3e 2994 ac3e 704a 3f3e ed20 f63d
000000d0: f843 9d3e 84fc f13c c9c5 983e 3261 b13e
000000e0: c6df 013d aebc 6e3e ff82 203f 356c 6e3e
000000f0: 550e 8e3e 552b 2c3e b559 9d3e 2d73 2d3e

network.3.running_var f4 [64]
0.33687446 0.14872435 0.048175614 0.71057326 0.12809122 0.20963499 0.023941256 0.0038638976
0.33960795 0.24545364 0.23636508 0.2735096 0.1280608 0.23469365 0.5623826 0.41013655
0.07956963 0.4366501 0.10753627 0.66042423 0.046452202 0.24491969 0.6414721 0.07870042
0.122595176 0.054248918 0.1563711 0.096393436 0.085595466 0.02353967 0.1283316 0.18118365
0.12096732 0.055725276 0.029737428 0.08134136 0.062337607 0.107977815 0.25932643 0.54320085
0.16891533 0.0012744041 0.22910228 0.1885259 0.047966953 0.02337503 0.0629196 0.09145168
0.11221164 0.2279027 0.1715489 0.055242695 0.215834 0.007893946 0.10083338 0.49478924
0.0118340785 0.09836839 0.64657485 0.13510542 0.14927302 0.09364732 0.1034908 0.19382544
00000000: cf7a ac3e 324b 183e cb53 453d 21e8 353f
00000010: 582a 033e 8eaa 563e 7420 c43c 7239 7d3b
00000020: 18e1 ad3e 3358 7b3e b009 723e 7309 8c3e
00000030: 5f22 033e 8853 703e 4ef8 0f3f 6bfd d13e
00000040: 67f5 a23d 9a90 df3e fa3b dc3d 9011 293f
00000050: aa44 3e3d 3acc 7a3e 8437 243f b02d a13d
00000060: 2e13 fb3d 1d34 5e3d bf1f 203e ec69 c53d
00000070: ad4c af3d 44d6 c03c 5c69 033e 3588 393e
00000080: b7bd f73d 3040 643d e89b f33c 4d96 a63d
00000090: b855 7f3d 7923 dd3d 6fc6 843e 360f 0b3f
000000a0: 24f8 2c3e e809 a73a ca99 6a3e ef0c 413e
000000b0: ff78 443d fe7c bf3c fedb 803d 054b bb3d
000000c0: 37cf e53d 535f 693e 84aa 2f3e 2a46 623d
000000d0: 9703 5d3e 9c55 013c bb81 ce3d 0455 fd3e
000000e0: b9e3 413c 5e75 c93d ee85 253f 1359 0a3e
000000f0: 07db 183e 2bca bf3d fcf2 d33d 2d7a 463e
